…
I0708 10:22:21.802394 20129 net.cpp:287] The NetState phase (0) differed from the phase (1) specified by a rule in layer accuracy_1
I0708 10:22:21.802531 20129 net.cpp:42] Initializing net from parameters: 
name: "face_train_test"
state {
  phase: TRAIN
}
layer {
  name: "data_1"
  type: "Data"
  top: "data_1"
  top: "label_1"
  include {
    phase: TRAIN
  }
  transform_param {
    mean_file: "/media/crw/MyBook/TrainData/LMDB/FaceRecognition/webface10575_48/mean.binaryproto"
  }
  data_param {
    source: "/media/crw/MyBook/TrainData/LMDB/FaceRecognition/webface10575_48/train"
    batch_size: 32
    backend: LMDB
  }
}
layer {
  name: "conv1_1"
  type: "Convolution"
  bottom: "data_1"
  top: "conv1_1"
  param {
    name: "conv1_w"
    lr_mult: 1
    decay_mult: 1
  }
  param {
    name: "conv1_b"
    lr_mult: 2
    decay_mult: 0
  }
  convolution_param {
    num_output: 20
    kernel_size: 4
    stride: 1
    weight_filler {
      type: "gaussian"
      std: 0.01
    }
    bias_filler {
      type: "constant"
      value: 0
    }
  }
}
layer {
  name: "relu1_1"
  type: "ReLU"
  bottom: "conv1_1"
  top: "conv1_1"
}
layer {
  name: "norm1_1"
  type: "LRN"
  bottom: "conv1_1"
  top: "norm1_1"
  lrn_param {
    local_size: 5
    alpha: 0.0001
    beta: 0.75
  }
}
layer {
  name: "pool1_1"
  type: "Pooling"
  bottom: "norm1_1"
  top: "pool1_1"
  pooling_param {
    pool: MAX
    kernel_size: 2
    stride: 2
  }
}
layer {
  name: "conv2_1"
  type: "Convolution"
  bottom: "pool1_1"
  top: "conv2_1"
  param {
    name: "conv2_w"
    lr_mult: 1
    decay_mult: 1
  }
  param {
    name: "conv2_b"
    lr_mult: 2
    decay_mult: 0
  }
  convolution_param {
    num_output: 40
    kernel_size: 3
    group: 2
    weight_filler {
      type: "gaussian"
      std: 0.01
    }
    bias_filler {
      type: "constant"
      value: 0.1
    }
  }
}
layer {
  name: "relu2_1"
  type: "ReLU"
  bottom: "conv2_1"
  top: "conv2_1"
}
layer {
  name: "norm2_1"
  type: "LRN"
  bottom: "conv2_1"
  top: "norm2_1"
  lrn_param {
    local_size: 5
    alpha: 0.0001
    beta: 0.75
  }
}
layer {
  name: "pool2_1"
  type: "Pooling"
  bottom: "norm2_1"
  top: "pool2_1"
  pooling_param {
    pool: MAX
    kernel_size: 2
    stride: 2
  }
}
layer {
  name: "conv3_1"
  type: "Convolution"
  bottom: "pool2_1"
  top: "conv3_1"
  param {
    name: "conv3_w"
    lr_mult: 1
    decay_mult: 1
  }
  param {
    name: "conv3_b"
    lr_mult: 2
    decay_mult: 0
  }
  convolution_param {
    num_output: 60
    kernel_size: 3
    weight_filler {
      type: "gaussian"
      std: 0.01
    }
    bias_filler {
      type: "constant"
      value: 0
    }
  }
}
layer {
  name: "pool3_1"
  type: "Pooling"
  bottom: "conv3_1"
  top: "pool3_1"
  pooling_param {
    pool: MAX
    kernel_size: 2
    stride: 2
  }
}
layer {
  name: "conv4_1"
  type: "Convolution"
  bottom: "pool3_1"
  top: "conv4_1"
  param {
    name: "conv4_w"
    lr_mult: 1
    decay_mult: 1
  }
  param {
    name: "conv4_b"
    lr_mult: 2
    decay_mult: 0
  }
  convolution_param {
    num_output: 80
    kernel_size: 2
    stride: 2
    weight_filler {
      type: "gaussian"
      std: 0.01
    }
    bias_filler {
      type: "constant"
      value: 0.1
    }
  }
}
layer {
  name: "flatten_pool3_1"
  type: "Flatten"
  bottom: "pool3_1"
  top: "flatten_pool3_1"
}
layer {
  name: "flatten_conv4_1"
  type: "Flatten"
  bottom: "conv4_1"
  top: "flatten_conv4_1"
}
layer {
  name: "contact_conv"
  type: "Concat"
  bottom: "flatten_conv4_1"
  bottom: "flatten_pool3_1"
  top: "contact_conv"
}
layer {
  name: "deepid_1"
  type: "InnerProduct"
  bottom: "contact_conv"
  top: "deepid_1"
  param {
    name: "fc6_w"
    lr_mult: 1
    decay_mult: 1
  }
  param {
    name: "fc6_b"
    lr_mult: 2
    decay_mult: 0
  }
  inner_product_param {
    num_output: 160
    weight_filler {
      type: "gaussian"
      std: 0.005
    }
    bias_filler {
      type: "constant"
      value: 0.1
    }
  }
}
layer {
  name: "relu6_1"
  type: "ReLU"
  bottom: "deepid_1"
  top: "deepid_1"
}
layer {
  name: "drop6_1"
  type: "Dropout"
  bottom: "deepid_1"
  top: "deepid_1"
  dropout_param {
    dropout_ratio: 0.5
  }
}
layer {
  name: "fc8_1"
  type: "InnerProduct"
  bottom: "deepid_1"
  top: "fc8_1"
  param {
    name: "fc8_w"
    lr_mult: 1
    decay_mult: 1
  }
  param {
    name: "fc8_b"
    lr_mult: 2
    decay_mult: 0
  }
  inner_product_param {
    num_output: 10575
    weight_filler {
      type: "gaussian"
      std: 0.01
    }
    bias_filler {
      type: "constant"
      value: 0
    }
  }
}
layer {
  name: "loss_1"
  type: "SoftmaxWithLoss"
  bottom: "fc8_1"
  bottom: "label_1"
  top: "loss_1"
}
I0708 10:22:21.803208 20129 layer_factory.hpp:74] Creating layer data_1
I0708 10:22:21.803230 20129 net.cpp:90] Creating Layer data_1
I0708 10:22:21.803239 20129 net.cpp:368] data_1 -> data_1
I0708 10:22:21.803261 20129 net.cpp:368] data_1 -> label_1
I0708 10:22:21.803274 20129 net.cpp:120] Setting up data_1
I0708 10:22:21.877317 20129 db.cpp:34] Opened lmdb /media/crw/MyBook/TrainData/LMDB/FaceRecognition/webface10575_48/train
I0708 10:22:21.889370 20129 data_layer.cpp:67] output data size: 32,3,48,48
I0708 10:22:21.889410 20129 data_transformer.cpp:22] Loading mean file from: /media/crw/MyBook/TrainData/LMDB/FaceRecognition/webface10575_48/mean.binaryproto
I0708 10:22:21.929932 20129 net.cpp:127] Top shape: 32 3 48 48 (221184)
I0708 10:22:21.929961 20129 net.cpp:127] Top shape: 32 (32)
I0708 10:22:21.929971 20129 layer_factory.hpp:74] Creating layer conv1_1
I0708 10:22:21.929987 20129 net.cpp:90] Creating Layer conv1_1
I0708 10:22:21.929996 20129 net.cpp:410] conv1_1 <- data_1
I0708 10:22:21.930011 20129 net.cpp:368] conv1_1 -> conv1_1
I0708 10:22:21.930023 20129 net.cpp:120] Setting up conv1_1
I0708 10:22:21.930382 20129 net.cpp:127] Top shape: 32 20 45 45 (1296000)
I0708 10:22:21.930397 20129 layer_factory.hpp:74] Creating layer relu1_1
I0708 10:22:21.930407 20129 net.cpp:90] Creating Layer relu1_1
I0708 10:22:21.930413 20129 net.cpp:410] relu1_1 <- conv1_1
I0708 10:22:21.930444 20129 net.cpp:357] relu1_1 -> conv1_1 (in-place)
I0708 10:22:21.930456 20129 net.cpp:120] Setting up relu1_1
I0708 10:22:21.930467 20129 net.cpp:127] Top shape: 32 20 45 45 (1296000)
I0708 10:22:21.930475 20129 layer_factory.hpp:74] Creating layer norm1_1
I0708 10:22:21.930485 20129 net.cpp:90] Creating Layer norm1_1
I0708 10:22:21.930493 20129 net.cpp:410] norm1_1 <- conv1_1
I0708 10:22:21.930502 20129 net.cpp:368] norm1_1 -> norm1_1
I0708 10:22:21.930513 20129 net.cpp:120] Setting up norm1_1
I0708 10:22:21.930608 20129 net.cpp:127] Top shape: 32 20 45 45 (1296000)
I0708 10:22:21.930622 20129 layer_factory.hpp:74] Creating layer pool1_1
I0708 10:22:21.930634 20129 net.cpp:90] Creating Layer pool1_1
I0708 10:22:21.930642 20129 net.cpp:410] pool1_1 <- norm1_1
I0708 10:22:21.930651 20129 net.cpp:368] pool1_1 -> pool1_1
I0708 10:22:21.930663 20129 net.cpp:120] Setting up pool1_1
I0708 10:22:21.930738 20129 net.cpp:127] Top shape: 32 20 23 23 (338560)
I0708 10:22:21.930757 20129 layer_factory.hpp:74] Creating layer conv2_1
I0708 10:22:21.930773 20129 net.cpp:90] Creating Layer conv2_1
I0708 10:22:21.930783 20129 net.cpp:410] conv2_1 <- pool1_1
I0708 10:22:21.930794 20129 net.cpp:368] conv2_1 -> conv2_1
I0708 10:22:21.930806 20129 net.cpp:120] Setting up conv2_1
I0708 10:22:21.930925 20129 net.cpp:127] Top shape: 32 40 21 21 (564480)
I0708 10:22:21.930938 20129 layer_factory.hpp:74] Creating layer relu2_1
I0708 10:22:21.930968 20129 net.cpp:90] Creating Layer relu2_1
I0708 10:22:21.930975 20129 net.cpp:410] relu2_1 <- conv2_1
I0708 10:22:21.930986 20129 net.cpp:357] relu2_1 -> conv2_1 (in-place)
I0708 10:22:21.930996 20129 net.cpp:120] Setting up relu2_1
I0708 10:22:21.931005 20129 net.cpp:127] Top shape: 32 40 21 21 (564480)
I0708 10:22:21.931013 20129 layer_factory.hpp:74] Creating layer norm2_1
I0708 10:22:21.931022 20129 net.cpp:90] Creating Layer norm2_1
I0708 10:22:21.931030 20129 net.cpp:410] norm2_1 <- conv2_1
I0708 10:22:21.931040 20129 net.cpp:368] norm2_1 -> norm2_1
I0708 10:22:21.931048 20129 net.cpp:120] Setting up norm2_1
I0708 10:22:21.931058 20129 net.cpp:127] Top shape: 32 40 21 21 (564480)
I0708 10:22:21.931066 20129 layer_factory.hpp:74] Creating layer pool2_1
I0708 10:22:21.931077 20129 net.cpp:90] Creating Layer pool2_1
I0708 10:22:21.931083 20129 net.cpp:410] pool2_1 <- norm2_1
I0708 10:22:21.931094 20129 net.cpp:368] pool2_1 -> pool2_1
I0708 10:22:21.931104 20129 net.cpp:120] Setting up pool2_1
I0708 10:22:21.931114 20129 net.cpp:127] Top shape: 32 40 11 11 (154880)
I0708 10:22:21.931123 20129 layer_factory.hpp:74] Creating layer conv3_1
I0708 10:22:21.931133 20129 net.cpp:90] Creating Layer conv3_1
I0708 10:22:21.931140 20129 net.cpp:410] conv3_1 <- pool2_1
I0708 10:22:21.931149 20129 net.cpp:368] conv3_1 -> conv3_1
I0708 10:22:21.931160 20129 net.cpp:120] Setting up conv3_1
I0708 10:22:21.931814 20129 net.cpp:127] Top shape: 32 60 9 9 (155520)
I0708 10:22:21.931830 20129 layer_factory.hpp:74] Creating layer pool3_1
I0708 10:22:21.931843 20129 net.cpp:90] Creating Layer pool3_1
I0708 10:22:21.931851 20129 net.cpp:410] pool3_1 <- conv3_1
I0708 10:22:21.931861 20129 net.cpp:368] pool3_1 -> pool3_1
I0708 10:22:21.931870 20129 net.cpp:120] Setting up pool3_1
I0708 10:22:21.931881 20129 net.cpp:127] Top shape: 32 60 5 5 (48000)
I0708 10:22:21.931888 20129 layer_factory.hpp:74] Creating layer pool3_1_pool3_1_0_split
I0708 10:22:21.937878 20129 net.cpp:90] Creating Layer pool3_1_pool3_1_0_split
I0708 10:22:21.937898 20129 net.cpp:410] pool3_1_pool3_1_0_split <- pool3_1
I0708 10:22:21.937911 20129 net.cpp:368] pool3_1_pool3_1_0_split -> pool3_1_pool3_1_0_split_0
I0708 10:22:21.937923 20129 net.cpp:368] pool3_1_pool3_1_0_split -> pool3_1_pool3_1_0_split_1
I0708 10:22:21.937934 20129 net.cpp:120] Setting up pool3_1_pool3_1_0_split
I0708 10:22:21.937947 20129 net.cpp:127] Top shape: 32 60 5 5 (48000)
I0708 10:22:21.937955 20129 net.cpp:127] Top shape: 32 60 5 5 (48000)
I0708 10:22:21.937963 20129 layer_factory.hpp:74] Creating layer conv4_1
I0708 10:22:21.937976 20129 net.cpp:90] Creating Layer conv4_1
I0708 10:22:21.937985 20129 net.cpp:410] conv4_1 <- pool3_1_pool3_1_0_split_0
I0708 10:22:21.937995 20129 net.cpp:368] conv4_1 -> conv4_1
I0708 10:22:21.938006 20129 net.cpp:120] Setting up conv4_1
I0708 10:22:21.938614 20129 net.cpp:127] Top shape: 32 80 2 2 (10240)
I0708 10:22:21.938627 20129 layer_factory.hpp:74] Creating layer flatten_pool3_1
I0708 10:22:21.938637 20129 net.cpp:90] Creating Layer flatten_pool3_1
I0708 10:22:21.938644 20129 net.cpp:410] flatten_pool3_1 <- pool3_1_pool3_1_0_split_1
I0708 10:22:21.938652 20129 net.cpp:368] flatten_pool3_1 -> flatten_pool3_1
I0708 10:22:21.938659 20129 net.cpp:120] Setting up flatten_pool3_1
I0708 10:22:21.938668 20129 net.cpp:127] Top shape: 32 1500 (48000)
I0708 10:22:21.938673 20129 layer_factory.hpp:74] Creating layer flatten_conv4_1
I0708 10:22:21.938679 20129 net.cpp:90] Creating Layer flatten_conv4_1
I0708 10:22:21.938685 20129 net.cpp:410] flatten_conv4_1 <- conv4_1
I0708 10:22:21.938694 20129 net.cpp:368] flatten_conv4_1 -> flatten_conv4_1
I0708 10:22:21.938700 20129 net.cpp:120] Setting up flatten_conv4_1
I0708 10:22:21.938707 20129 net.cpp:127] Top shape: 32 320 (10240)
I0708 10:22:21.938714 20129 layer_factory.hpp:74] Creating layer contact_conv
I0708 10:22:21.938721 20129 net.cpp:90] Creating Layer contact_conv
I0708 10:22:21.938727 20129 net.cpp:410] contact_conv <- flatten_conv4_1
I0708 10:22:21.938733 20129 net.cpp:410] contact_conv <- flatten_pool3_1
I0708 10:22:21.938755 20129 net.cpp:368] contact_conv -> contact_conv
I0708 10:22:21.938763 20129 net.cpp:120] Setting up contact_conv
I0708 10:22:21.938773 20129 net.cpp:127] Top shape: 32 1820 (58240)
I0708 10:22:21.938779 20129 layer_factory.hpp:74] Creating layer deepid_1
I0708 10:22:21.938791 20129 net.cpp:90] Creating Layer deepid_1
I0708 10:22:21.938797 20129 net.cpp:410] deepid_1 <- contact_conv
I0708 10:22:21.938807 20129 net.cpp:368] deepid_1 -> deepid_1
I0708 10:22:21.938817 20129 net.cpp:120] Setting up deepid_1
I0708 10:22:21.944907 20129 net.cpp:127] Top shape: 32 160 (5120)
I0708 10:22:21.944934 20129 layer_factory.hpp:74] Creating layer relu6_1
I0708 10:22:21.944946 20129 net.cpp:90] Creating Layer relu6_1
I0708 10:22:21.944952 20129 net.cpp:410] relu6_1 <- deepid_1
I0708 10:22:21.944959 20129 net.cpp:357] relu6_1 -> deepid_1 (in-place)
I0708 10:22:21.944967 20129 net.cpp:120] Setting up relu6_1
I0708 10:22:21.944974 20129 net.cpp:127] Top shape: 32 160 (5120)
I0708 10:22:21.944980 20129 layer_factory.hpp:74] Creating layer drop6_1
I0708 10:22:21.944989 20129 net.cpp:90] Creating Layer drop6_1
I0708 10:22:21.944995 20129 net.cpp:410] drop6_1 <- deepid_1
I0708 10:22:21.945003 20129 net.cpp:357] drop6_1 -> deepid_1 (in-place)
I0708 10:22:21.945013 20129 net.cpp:120] Setting up drop6_1
I0708 10:22:21.945024 20129 net.cpp:127] Top shape: 32 160 (5120)
I0708 10:22:21.945029 20129 layer_factory.hpp:74] Creating layer fc8_1
I0708 10:22:21.945039 20129 net.cpp:90] Creating Layer fc8_1
I0708 10:22:21.945049 20129 net.cpp:410] fc8_1 <- deepid_1
I0708 10:22:21.945057 20129 net.cpp:368] fc8_1 -> fc8_1
I0708 10:22:21.945065 20129 net.cpp:120] Setting up fc8_1
I0708 10:22:21.979723 20129 net.cpp:127] Top shape: 32 10575 (338400)
I0708 10:22:21.979753 20129 layer_factory.hpp:74] Creating layer loss_1
I0708 10:22:21.979768 20129 net.cpp:90] Creating Layer loss_1
I0708 10:22:21.979774 20129 net.cpp:410] loss_1 <- fc8_1
I0708 10:22:21.979781 20129 net.cpp:410] loss_1 <- label_1
I0708 10:22:21.979790 20129 net.cpp:368] loss_1 -> loss_1
I0708 10:22:21.979800 20129 net.cpp:120] Setting up loss_1
I0708 10:22:21.979810 20129 layer_factory.hpp:74] Creating layer loss_1
…
I0708 10:22:21.980901 20129 net.cpp:287] The NetState phase (1) differed from the phase (0) specified by a rule in layer data_1
I0708 10:22:21.981014 20129 net.cpp:42] Initializing net from parameters: 
name: "face_train_test"
state {
  phase: TEST
}
layer {
  name: "data_1"
  type: "Data"
  top: "data_1"
  top: "label_1"
  include {
    phase: TEST
  }
  transform_param {
    mean_file: "/media/crw/MyBook/TrainData/LMDB/FaceRecognition/webface10575_48/mean.binaryproto"
  }
  data_param {
    source: "/media/crw/MyBook/TrainData/LMDB/FaceRecognition/webface10575_48/val"
    batch_size: 32
    backend: LMDB
  }
}
layer {
  name: "conv1_1"
  type: "Convolution"
  bottom: "data_1"
  top: "conv1_1"
  param {
    name: "conv1_w"
    lr_mult: 1
    decay_mult: 1
  }
  param {
    name: "conv1_b"
    lr_mult: 2
    decay_mult: 0
  }
  convolution_param {
    num_output: 20
    kernel_size: 4
    stride: 1
    weight_filler {
      type: "gaussian"
      std: 0.01
    }
    bias_filler {
      type: "constant"
      value: 0
    }
  }
}
layer {
  name: "relu1_1"
  type: "ReLU"
  bottom: "conv1_1"
  top: "conv1_1"
}
layer {
  name: "norm1_1"
  type: "LRN"
  bottom: "conv1_1"
  top: "norm1_1"
  lrn_param {
    local_size: 5
    alpha: 0.0001
    beta: 0.75
  }
}
layer {
  name: "pool1_1"
  type: "Pooling"
  bottom: "norm1_1"
  top: "pool1_1"
  pooling_param {
    pool: MAX
    kernel_size: 2
    stride: 2
  }
}
layer {
  name: "conv2_1"
  type: "Convolution"
  bottom: "pool1_1"
  top: "conv2_1"
  param {
    name: "conv2_w"
    lr_mult: 1
    decay_mult: 1
  }
  param {
    name: "conv2_b"
    lr_mult: 2
    decay_mult: 0
  }
  convolution_param {
    num_output: 40
    kernel_size: 3
    group: 2
    weight_filler {
      type: "gaussian"
      std: 0.01
    }
    bias_filler {
      type: "constant"
      value: 0.1
    }
  }
}
layer {
  name: "relu2_1"
  type: "ReLU"
  bottom: "conv2_1"
  top: "conv2_1"
}
layer {
  name: "norm2_1"
  type: "LRN"
  bottom: "conv2_1"
  top: "norm2_1"
  lrn_param {
    local_size: 5
    alpha: 0.0001
    beta: 0.75
  }
}
layer {
  name: "pool2_1"
  type: "Pooling"
  bottom: "norm2_1"
  top: "pool2_1"
  pooling_param {
    pool: MAX
    kernel_size: 2
    stride: 2
  }
}
layer {
  name: "conv3_1"
  type: "Convolution"
  bottom: "pool2_1"
  top: "conv3_1"
  param {
    name: "conv3_w"
    lr_mult: 1
    decay_mult: 1
  }
  param {
    name: "conv3_b"
    lr_mult: 2
    decay_mult: 0
  }
  convolution_param {
    num_output: 60
    kernel_size: 3
    weight_filler {
      type: "gaussian"
      std: 0.01
    }
    bias_filler {
      type: "constant"
      value: 0
    }
  }
}
layer {
  name: "pool3_1"
  type: "Pooling"
  bottom: "conv3_1"
  top: "pool3_1"
  pooling_param {
    pool: MAX
    kernel_size: 2
    stride: 2
  }
}
layer {
  name: "conv4_1"
  type: "Convolution"
  bottom: "pool3_1"
  top: "conv4_1"
  param {
    name: "conv4_w"
    lr_mult: 1
    decay_mult: 1
  }
  param {
    name: "conv4_b"
    lr_mult: 2
    decay_mult: 0
  }
  convolution_param {
    num_output: 80
    kernel_size: 2
    stride: 2
    weight_filler {
      type: "gaussian"
      std: 0.01
    }
    bias_filler {
      type: "constant"
      value: 0.1
    }
  }
}
layer {
  name: "flatten_pool3_1"
  type: "Flatten"
  bottom: "pool3_1"
  top: "flatten_pool3_1"
}
layer {
  name: "flatten_conv4_1"
  type: "Flatten"
  bottom: "conv4_1"
  top: "flatten_conv4_1"
}
layer {
  name: "contact_conv"
  type: "Concat"
  bottom: "flatten_conv4_1"
  bottom: "flatten_pool3_1"
  top: "contact_conv"
}
layer {
  name: "deepid_1"
  type: "InnerProduct"
  bottom: "contact_conv"
  top: "deepid_1"
  param {
    name: "fc6_w"
    lr_mult: 1
    decay_mult: 1
  }
  param {
    name: "fc6_b"
    lr_mult: 2
    decay_mult: 0
  }
  inner_product_param {
    num_output: 160
    weight_filler {
      type: "gaussian"
      std: 0.005
    }
    bias_filler {
      type: "constant"
      value: 0.1
    }
  }
}
layer {
  name: "relu6_1"
  type: "ReLU"
  bottom: "deepid_1"
  top: "deepid_1"
}
layer {
  name: "drop6_1"
  type: "Dropout"
  bottom: "deepid_1"
  top: "deepid_1"
  dropout_param {
    dropout_ratio: 0.5
  }
}
layer {
  name: "fc8_1"
  type: "InnerProduct"
  bottom: "deepid_1"
  top: "fc8_1"
  param {
    name: "fc8_w"
    lr_mult: 1
    decay_mult: 1
  }
  param {
    name: "fc8_b"
    lr_mult: 2
    decay_mult: 0
  }
  inner_product_param {
    num_output: 10575
    weight_filler {
      type: "gaussian"
      std: 0.01
    }
    bias_filler {
      type: "constant"
      value: 0
    }
  }
}
layer {
  name: "accuracy_1"
  type: "Accuracy"
  bottom: "fc8_1"
  bottom: "label_1"
  top: "accuracy_1"
  include {
    phase: TEST
  }
}
layer {
  name: "loss_1"
  type: "SoftmaxWithLoss"
  bottom: "fc8_1"
  bottom: "label_1"
  top: "loss_1"
}
I0708 10:22:21.981698 20129 layer_factory.hpp:74] Creating layer data_1
I0708 10:22:21.981712 20129 net.cpp:90] Creating Layer data_1
I0708 10:22:21.981719 20129 net.cpp:368] data_1 -> data_1
I0708 10:22:21.981730 20129 net.cpp:368] data_1 -> label_1
I0708 10:22:21.981739 20129 net.cpp:120] Setting up data_1
I0708 10:22:22.039872 20129 db.cpp:34] Opened lmdb /media/crw/MyBook/TrainData/LMDB/FaceRecognition/webface10575_48/val
I0708 10:22:22.055665 20129 data_layer.cpp:67] output data size: 32,3,48,48
I0708 10:22:22.055692 20129 data_transformer.cpp:22] Loading mean file from: /media/crw/MyBook/TrainData/LMDB/FaceRecognition/webface10575_48/mean.binaryproto
I0708 10:22:22.064663 20129 net.cpp:127] Top shape: 32 3 48 48 (221184)
I0708 10:22:22.064685 20129 net.cpp:127] Top shape: 32 (32)
I0708 10:22:22.064694 20129 layer_factory.hpp:74] Creating layer label_1_data_1_1_split
I0708 10:22:22.064707 20129 net.cpp:90] Creating Layer label_1_data_1_1_split
I0708 10:22:22.064716 20129 net.cpp:410] label_1_data_1_1_split <- label_1
I0708 10:22:22.064726 20129 net.cpp:368] label_1_data_1_1_split -> label_1_data_1_1_split_0
I0708 10:22:22.064739 20129 net.cpp:368] label_1_data_1_1_split -> label_1_data_1_1_split_1
I0708 10:22:22.064749 20129 net.cpp:120] Setting up label_1_data_1_1_split
I0708 10:22:22.064757 20129 net.cpp:127] Top shape: 32 (32)
I0708 10:22:22.064764 20129 net.cpp:127] Top shape: 32 (32)
I0708 10:22:22.064770 20129 layer_factory.hpp:74] Creating layer conv1_1
I0708 10:22:22.064784 20129 net.cpp:90] Creating Layer conv1_1
I0708 10:22:22.064791 20129 net.cpp:410] conv1_1 <- data_1
I0708 10:22:22.064800 20129 net.cpp:368] conv1_1 -> conv1_1
I0708 10:22:22.064815 20129 net.cpp:120] Setting up conv1_1
I0708 10:22:22.064882 20129 net.cpp:127] Top shape: 32 20 45 45 (1296000)
I0708 10:22:22.064895 20129 layer_factory.hpp:74] Creating layer relu1_1
I0708 10:22:22.064905 20129 net.cpp:90] Creating Layer relu1_1
I0708 10:22:22.064913 20129 net.cpp:410] relu1_1 <- conv1_1
I0708 10:22:22.064920 20129 net.cpp:357] relu1_1 -> conv1_1 (in-place)
I0708 10:22:22.064929 20129 net.cpp:120] Setting up relu1_1
I0708 10:22:22.064936 20129 net.cpp:127] Top shape: 32 20 45 45 (1296000)
I0708 10:22:22.064944 20129 layer_factory.hpp:74] Creating layer norm1_1
I0708 10:22:22.064954 20129 net.cpp:90] Creating Layer norm1_1
I0708 10:22:22.064960 20129 net.cpp:410] norm1_1 <- conv1_1
I0708 10:22:22.064968 20129 net.cpp:368] norm1_1 -> norm1_1
I0708 10:22:22.064976 20129 net.cpp:120] Setting up norm1_1
I0708 10:22:22.064985 20129 net.cpp:127] Top shape: 32 20 45 45 (1296000)
I0708 10:22:22.064991 20129 layer_factory.hpp:74] Creating layer pool1_1
I0708 10:22:22.065001 20129 net.cpp:90] Creating Layer pool1_1
I0708 10:22:22.065008 20129 net.cpp:410] pool1_1 <- norm1_1
I0708 10:22:22.065016 20129 net.cpp:368] pool1_1 -> pool1_1
I0708 10:22:22.065024 20129 net.cpp:120] Setting up pool1_1
I0708 10:22:22.065033 20129 net.cpp:127] Top shape: 32 20 23 23 (338560)
I0708 10:22:22.065040 20129 layer_factory.hpp:74] Creating layer conv2_1
I0708 10:22:22.065067 20129 net.cpp:90] Creating Layer conv2_1
I0708 10:22:22.065074 20129 net.cpp:410] conv2_1 <- pool1_1
I0708 10:22:22.065083 20129 net.cpp:368] conv2_1 -> conv2_1
I0708 10:22:22.065091 20129 net.cpp:120] Setting up conv2_1
I0708 10:22:22.065191 20129 net.cpp:127] Top shape: 32 40 21 21 (564480)
I0708 10:22:22.065201 20129 layer_factory.hpp:74] Creating layer relu2_1
I0708 10:22:22.065210 20129 net.cpp:90] Creating Layer relu2_1
I0708 10:22:22.065217 20129 net.cpp:410] relu2_1 <- conv2_1
I0708 10:22:22.065223 20129 net.cpp:357] relu2_1 -> conv2_1 (in-place)
I0708 10:22:22.065232 20129 net.cpp:120] Setting up relu2_1
I0708 10:22:22.065239 20129 net.cpp:127] Top shape: 32 40 21 21 (564480)
I0708 10:22:22.065245 20129 layer_factory.hpp:74] Creating layer norm2_1
I0708 10:22:22.065254 20129 net.cpp:90] Creating Layer norm2_1
I0708 10:22:22.065261 20129 net.cpp:410] norm2_1 <- conv2_1
I0708 10:22:22.065268 20129 net.cpp:368] norm2_1 -> norm2_1
I0708 10:22:22.065278 20129 net.cpp:120] Setting up norm2_1
I0708 10:22:22.065289 20129 net.cpp:127] Top shape: 32 40 21 21 (564480)
I0708 10:22:22.065299 20129 layer_factory.hpp:74] Creating layer pool2_1
I0708 10:22:22.065307 20129 net.cpp:90] Creating Layer pool2_1
I0708 10:22:22.065315 20129 net.cpp:410] pool2_1 <- norm2_1
I0708 10:22:22.065321 20129 net.cpp:368] pool2_1 -> pool2_1
I0708 10:22:22.065330 20129 net.cpp:120] Setting up pool2_1
I0708 10:22:22.065338 20129 net.cpp:127] Top shape: 32 40 11 11 (154880)
I0708 10:22:22.065345 20129 layer_factory.hpp:74] Creating layer conv3_1
I0708 10:22:22.065353 20129 net.cpp:90] Creating Layer conv3_1
I0708 10:22:22.065359 20129 net.cpp:410] conv3_1 <- pool2_1
I0708 10:22:22.065368 20129 net.cpp:368] conv3_1 -> conv3_1
I0708 10:22:22.065377 20129 net.cpp:120] Setting up conv3_1
I0708 10:22:22.065924 20129 net.cpp:127] Top shape: 32 60 9 9 (155520)
I0708 10:22:22.065938 20129 layer_factory.hpp:74] Creating layer pool3_1
I0708 10:22:22.065948 20129 net.cpp:90] Creating Layer pool3_1
I0708 10:22:22.065954 20129 net.cpp:410] pool3_1 <- conv3_1
I0708 10:22:22.065963 20129 net.cpp:368] pool3_1 -> pool3_1
I0708 10:22:22.065973 20129 net.cpp:120] Setting up pool3_1
I0708 10:22:22.065981 20129 net.cpp:127] Top shape: 32 60 5 5 (48000)
I0708 10:22:22.065989 20129 layer_factory.hpp:74] Creating layer pool3_1_pool3_1_0_split
I0708 10:22:22.065996 20129 net.cpp:90] Creating Layer pool3_1_pool3_1_0_split
I0708 10:22:22.066002 20129 net.cpp:410] pool3_1_pool3_1_0_split <- pool3_1
I0708 10:22:22.066010 20129 net.cpp:368] pool3_1_pool3_1_0_split -> pool3_1_pool3_1_0_split_0
I0708 10:22:22.066020 20129 net.cpp:368] pool3_1_pool3_1_0_split -> pool3_1_pool3_1_0_split_1
I0708 10:22:22.066028 20129 net.cpp:120] Setting up pool3_1_pool3_1_0_split
I0708 10:22:22.066036 20129 net.cpp:127] Top shape: 32 60 5 5 (48000)
I0708 10:22:22.066043 20129 net.cpp:127] Top shape: 32 60 5 5 (48000)
I0708 10:22:22.066050 20129 layer_factory.hpp:74] Creating layer conv4_1
I0708 10:22:22.066061 20129 net.cpp:90] Creating Layer conv4_1
I0708 10:22:22.066067 20129 net.cpp:410] conv4_1 <- pool3_1_pool3_1_0_split_0
I0708 10:22:22.066077 20129 net.cpp:368] conv4_1 -> conv4_1
I0708 10:22:22.066087 20129 net.cpp:120] Setting up conv4_1
I0708 10:22:22.066555 20129 net.cpp:127] Top shape: 32 80 2 2 (10240)
I0708 10:22:22.066565 20129 layer_factory.hpp:74] Creating layer flatten_pool3_1
I0708 10:22:22.066573 20129 net.cpp:90] Creating Layer flatten_pool3_1
I0708 10:22:22.066579 20129 net.cpp:410] flatten_pool3_1 <- pool3_1_pool3_1_0_split_1
I0708 10:22:22.066588 20129 net.cpp:368] flatten_pool3_1 -> flatten_pool3_1
I0708 10:22:22.066597 20129 net.cpp:120] Setting up flatten_pool3_1
I0708 10:22:22.066606 20129 net.cpp:127] Top shape: 32 1500 (48000)
I0708 10:22:22.066612 20129 layer_factory.hpp:74] Creating layer flatten_conv4_1
I0708 10:22:22.066619 20129 net.cpp:90] Creating Layer flatten_conv4_1
I0708 10:22:22.066625 20129 net.cpp:410] flatten_conv4_1 <- conv4_1
I0708 10:22:22.066633 20129 net.cpp:368] flatten_conv4_1 -> flatten_conv4_1
I0708 10:22:22.066651 20129 net.cpp:120] Setting up flatten_conv4_1
I0708 10:22:22.066661 20129 net.cpp:127] Top shape: 32 320 (10240)
I0708 10:22:22.066668 20129 layer_factory.hpp:74] Creating layer contact_conv
I0708 10:22:22.066679 20129 net.cpp:90] Creating Layer contact_conv
I0708 10:22:22.066685 20129 net.cpp:410] contact_conv <- flatten_conv4_1
I0708 10:22:22.066692 20129 net.cpp:410] contact_conv <- flatten_pool3_1
I0708 10:22:22.066700 20129 net.cpp:368] contact_conv -> contact_conv
I0708 10:22:22.066709 20129 net.cpp:120] Setting up contact_conv
I0708 10:22:22.066720 20129 net.cpp:127] Top shape: 32 1820 (58240)
I0708 10:22:22.066727 20129 layer_factory.hpp:74] Creating layer deepid_1
I0708 10:22:22.066736 20129 net.cpp:90] Creating Layer deepid_1
I0708 10:22:22.066743 20129 net.cpp:410] deepid_1 <- contact_conv
I0708 10:22:22.066751 20129 net.cpp:368] deepid_1 -> deepid_1
I0708 10:22:22.066759 20129 net.cpp:120] Setting up deepid_1
I0708 10:22:22.074590 20129 net.cpp:127] Top shape: 32 160 (5120)
I0708 10:22:22.074612 20129 layer_factory.hpp:74] Creating layer relu6_1
I0708 10:22:22.074625 20129 net.cpp:90] Creating Layer relu6_1
I0708 10:22:22.074633 20129 net.cpp:410] relu6_1 <- deepid_1
I0708 10:22:22.074645 20129 net.cpp:357] relu6_1 -> deepid_1 (in-place)
I0708 10:22:22.074657 20129 net.cpp:120] Setting up relu6_1
I0708 10:22:22.074667 20129 net.cpp:127] Top shape: 32 160 (5120)
I0708 10:22:22.074676 20129 layer_factory.hpp:74] Creating layer drop6_1
I0708 10:22:22.074687 20129 net.cpp:90] Creating Layer drop6_1
I0708 10:22:22.074695 20129 net.cpp:410] drop6_1 <- deepid_1
I0708 10:22:22.074704 20129 net.cpp:357] drop6_1 -> deepid_1 (in-place)
I0708 10:22:22.074714 20129 net.cpp:120] Setting up drop6_1
I0708 10:22:22.074725 20129 net.cpp:127] Top shape: 32 160 (5120)
I0708 10:22:22.074733 20129 layer_factory.hpp:74] Creating layer fc8_1
I0708 10:22:22.074746 20129 net.cpp:90] Creating Layer fc8_1
I0708 10:22:22.074755 20129 net.cpp:410] fc8_1 <- deepid_1
I0708 10:22:22.074765 20129 net.cpp:368] fc8_1 -> fc8_1
I0708 10:22:22.074776 20129 net.cpp:120] Setting up fc8_1
I0708 10:22:22.111888 20129 net.cpp:127] Top shape: 32 10575 (338400)
I0708 10:22:22.111917 20129 layer_factory.hpp:74] Creating layer fc8_1_fc8_1_0_split
I0708 10:22:22.111927 20129 net.cpp:90] Creating Layer fc8_1_fc8_1_0_split
I0708 10:22:22.111934 20129 net.cpp:410] fc8_1_fc8_1_0_split <- fc8_1
I0708 10:22:22.111943 20129 net.cpp:368] fc8_1_fc8_1_0_split -> fc8_1_fc8_1_0_split_0
I0708 10:22:22.111953 20129 net.cpp:368] fc8_1_fc8_1_0_split -> fc8_1_fc8_1_0_split_1
I0708 10:22:22.111960 20129 net.cpp:120] Setting up fc8_1_fc8_1_0_split
I0708 10:22:22.111968 20129 net.cpp:127] Top shape: 32 10575 (338400)
I0708 10:22:22.111974 20129 net.cpp:127] Top shape: 32 10575 (338400)
I0708 10:22:22.111980 20129 layer_factory.hpp:74] Creating layer accuracy_1
I0708 10:22:22.111989 20129 net.cpp:90] Creating Layer accuracy_1
I0708 10:22:22.111996 20129 net.cpp:410] accuracy_1 <- fc8_1_fc8_1_0_split_0
I0708 10:22:22.112004 20129 net.cpp:410] accuracy_1 <- label_1_data_1_1_split_0
I0708 10:22:22.112010 20129 net.cpp:368] accuracy_1 -> accuracy_1
I0708 10:22:22.112017 20129 net.cpp:120] Setting up accuracy_1
…
