…
I0707 22:02:31.264189  4840 net.cpp:287] The NetState phase (0) differed from the phase (1) specified by a rule in layer accuracy_1
I0707 22:02:31.264292  4840 net.cpp:42] Initializing net from parameters: 
name: "face_train_test"
state {
  phase: TRAIN
}
layer {
  name: "data_1"
  type: "Data"
  top: "data_1"
  top: "label_1"
  include {
    phase: TRAIN
  }
  transform_param {
    mean_file: "/media/crw/MyBook/TrainData/LMDB/FaceRecognition/webface10575_48/mean.binaryproto"
  }
  data_param {
    source: "/media/crw/MyBook/TrainData/LMDB/FaceRecognition/webface10575_48/train"
    batch_size: 32
    backend: LMDB
  }
}
layer {
  name: "conv1_1"
  type: "Convolution"
  bottom: "data_1"
  top: "conv1_1"
  param {
    name: "conv1_w"
    lr_mult: 1
    decay_mult: 1
  }
  param {
    name: "conv1_b"
    lr_mult: 2
    decay_mult: 0
  }
  convolution_param {
    num_output: 20
    kernel_size: 4
    stride: 1
    weight_filler {
      type: "gaussian"
      std: 0.01
    }
    bias_filler {
      type: "constant"
      value: 0
    }
  }
}
layer {
  name: "relu1_1"
  type: "ReLU"
  bottom: "conv1_1"
  top: "conv1_1"
}
layer {
  name: "norm1_1"
  type: "LRN"
  bottom: "conv1_1"
  top: "norm1_1"
  lrn_param {
    local_size: 5
    alpha: 0.0001
    beta: 0.75
  }
}
layer {
  name: "pool1_1"
  type: "Pooling"
  bottom: "norm1_1"
  top: "pool1_1"
  pooling_param {
    pool: MAX
    kernel_size: 2
    stride: 2
  }
}
layer {
  name: "conv2_1"
  type: "Convolution"
  bottom: "pool1_1"
  top: "conv2_1"
  param {
    name: "conv2_w"
    lr_mult: 1
    decay_mult: 1
  }
  param {
    name: "conv2_b"
    lr_mult: 2
    decay_mult: 0
  }
  convolution_param {
    num_output: 40
    kernel_size: 3
    group: 2
    weight_filler {
      type: "gaussian"
      std: 0.01
    }
    bias_filler {
      type: "constant"
      value: 0.1
    }
  }
}
layer {
  name: "relu2_1"
  type: "ReLU"
  bottom: "conv2_1"
  top: "conv2_1"
}
layer {
  name: "norm2_1"
  type: "LRN"
  bottom: "conv2_1"
  top: "norm2_1"
  lrn_param {
    local_size: 5
    alpha: 0.0001
    beta: 0.75
  }
}
layer {
  name: "pool2_1"
  type: "Pooling"
  bottom: "norm2_1"
  top: "pool2_1"
  pooling_param {
    pool: MAX
    kernel_size: 2
    stride: 2
  }
}
layer {
  name: "conv3_1"
  type: "Convolution"
  bottom: "pool2_1"
  top: "conv3_1"
  param {
    name: "conv3_w"
    lr_mult: 1
    decay_mult: 1
  }
  param {
    name: "conv3_b"
    lr_mult: 2
    decay_mult: 0
  }
  convolution_param {
    num_output: 60
    kernel_size: 3
    weight_filler {
      type: "gaussian"
      std: 0.01
    }
    bias_filler {
      type: "constant"
      value: 0
    }
  }
}
layer {
  name: "pool3_1"
  type: "Pooling"
  bottom: "conv3_1"
  top: "pool3_1"
  pooling_param {
    pool: MAX
    kernel_size: 2
    stride: 2
  }
}
layer {
  name: "conv4_1"
  type: "Convolution"
  bottom: "pool3_1"
  top: "conv4_1"
  param {
    name: "conv4_w"
    lr_mult: 1
    decay_mult: 1
  }
  param {
    name: "conv4_b"
    lr_mult: 2
    decay_mult: 0
  }
  convolution_param {
    num_output: 80
    kernel_size: 2
    stride: 2
    weight_filler {
      type: "gaussian"
      std: 0.01
    }
    bias_filler {
      type: "constant"
      value: 0.1
    }
  }
}
layer {
  name: "flatten_pool3_1"
  type: "Flatten"
  bottom: "pool3_1"
  top: "flatten_pool3_1"
}
layer {
  name: "flatten_conv4_1"
  type: "Flatten"
  bottom: "conv4_1"
  top: "flatten_conv4_1"
}
layer {
  name: "contact_conv"
  type: "Concat"
  bottom: "flatten_conv4_1"
  bottom: "flatten_pool3_1"
  top: "contact_conv"
}
layer {
  name: "deepid_1"
  type: "InnerProduct"
  bottom: "contact_conv"
  top: "deepid_1"
  param {
    name: "fc6_w"
    lr_mult: 1
    decay_mult: 1
  }
  param {
    name: "fc6_b"
    lr_mult: 2
    decay_mult: 0
  }
  inner_product_param {
    num_output: 160
    weight_filler {
      type: "gaussian"
      std: 0.005
    }
    bias_filler {
      type: "constant"
      value: 0.1
    }
  }
}
layer {
  name: "relu6_1"
  type: "ReLU"
  bottom: "deepid_1"
  top: "deepid_1"
}
layer {
  name: "drop6_1"
  type: "Dropout"
  bottom: "deepid_1"
  top: "deepid_1"
  dropout_param {
    dropout_ratio: 0.5
  }
}
layer {
  name: "fc8_1"
  type: "InnerProduct"
  bottom: "deepid_1"
  top: "fc8_1"
  param {
    name: "fc8_w"
    lr_mult: 1
    decay_mult: 1
  }
  param {
    name: "fc8_b"
    lr_mult: 2
    decay_mult: 0
  }
  inner_product_param {
    num_output: 10575
    weight_filler {
      type: "gaussian"
      std: 0.01
    }
    bias_filler {
      type: "constant"
      value: 0
    }
  }
}
layer {
  name: "loss_1"
  type: "SoftmaxWithLoss"
  bottom: "fc8_1"
  bottom: "label_1"
  top: "loss_1"
}
I0707 22:02:31.265000  4840 layer_factory.hpp:74] Creating layer data_1
I0707 22:02:31.265019  4840 net.cpp:90] Creating Layer data_1
I0707 22:02:31.265029  4840 net.cpp:368] data_1 -> data_1
I0707 22:02:31.265285  4840 net.cpp:368] data_1 -> label_1
I0707 22:02:31.265307  4840 net.cpp:120] Setting up data_1
I0707 22:02:31.787339  4840 db.cpp:34] Opened lmdb /media/crw/MyBook/TrainData/LMDB/FaceRecognition/webface10575_48/train
I0707 22:02:31.850991  4840 data_layer.cpp:67] output data size: 32,3,48,48
I0707 22:02:31.851017  4840 data_transformer.cpp:22] Loading mean file from: /media/crw/MyBook/TrainData/LMDB/FaceRecognition/webface10575_48/mean.binaryproto
I0707 22:02:31.914057  4840 net.cpp:127] Top shape: 32 3 48 48 (221184)
I0707 22:02:31.914077  4840 net.cpp:127] Top shape: 32 (32)
I0707 22:02:31.914083  4840 layer_factory.hpp:74] Creating layer conv1_1
I0707 22:02:31.914098  4840 net.cpp:90] Creating Layer conv1_1
I0707 22:02:31.914103  4840 net.cpp:410] conv1_1 <- data_1
I0707 22:02:31.914132  4840 net.cpp:368] conv1_1 -> conv1_1
I0707 22:02:31.914144  4840 net.cpp:120] Setting up conv1_1
I0707 22:02:31.919415  4840 net.cpp:127] Top shape: 32 20 45 45 (1296000)
I0707 22:02:31.919431  4840 layer_factory.hpp:74] Creating layer relu1_1
I0707 22:02:31.919440  4840 net.cpp:90] Creating Layer relu1_1
I0707 22:02:31.919442  4840 net.cpp:410] relu1_1 <- conv1_1
I0707 22:02:31.919448  4840 net.cpp:357] relu1_1 -> conv1_1 (in-place)
I0707 22:02:31.919453  4840 net.cpp:120] Setting up relu1_1
I0707 22:02:31.920131  4840 net.cpp:127] Top shape: 32 20 45 45 (1296000)
I0707 22:02:31.920141  4840 layer_factory.hpp:74] Creating layer norm1_1
I0707 22:02:31.920148  4840 net.cpp:90] Creating Layer norm1_1
I0707 22:02:31.920152  4840 net.cpp:410] norm1_1 <- conv1_1
I0707 22:02:31.920159  4840 net.cpp:368] norm1_1 -> norm1_1
I0707 22:02:31.920166  4840 net.cpp:120] Setting up norm1_1
I0707 22:02:31.920279  4840 net.cpp:127] Top shape: 32 20 45 45 (1296000)
I0707 22:02:31.920289  4840 layer_factory.hpp:74] Creating layer pool1_1
I0707 22:02:31.920295  4840 net.cpp:90] Creating Layer pool1_1
I0707 22:02:31.920300  4840 net.cpp:410] pool1_1 <- norm1_1
I0707 22:02:31.920305  4840 net.cpp:368] pool1_1 -> pool1_1
I0707 22:02:31.920310  4840 net.cpp:120] Setting up pool1_1
I0707 22:02:31.920325  4840 net.cpp:127] Top shape: 32 20 23 23 (338560)
I0707 22:02:31.920330  4840 layer_factory.hpp:74] Creating layer conv2_1
I0707 22:02:31.920336  4840 net.cpp:90] Creating Layer conv2_1
I0707 22:02:31.920339  4840 net.cpp:410] conv2_1 <- pool1_1
I0707 22:02:31.920344  4840 net.cpp:368] conv2_1 -> conv2_1
I0707 22:02:31.920349  4840 net.cpp:120] Setting up conv2_1
I0707 22:02:31.920433  4840 net.cpp:127] Top shape: 32 40 21 21 (564480)
I0707 22:02:31.920438  4840 layer_factory.hpp:74] Creating layer relu2_1
I0707 22:02:31.920455  4840 net.cpp:90] Creating Layer relu2_1
I0707 22:02:31.920459  4840 net.cpp:410] relu2_1 <- conv2_1
I0707 22:02:31.920464  4840 net.cpp:357] relu2_1 -> conv2_1 (in-place)
I0707 22:02:31.920467  4840 net.cpp:120] Setting up relu2_1
I0707 22:02:31.920471  4840 net.cpp:127] Top shape: 32 40 21 21 (564480)
I0707 22:02:31.920475  4840 layer_factory.hpp:74] Creating layer norm2_1
I0707 22:02:31.920480  4840 net.cpp:90] Creating Layer norm2_1
I0707 22:02:31.920482  4840 net.cpp:410] norm2_1 <- conv2_1
I0707 22:02:31.920486  4840 net.cpp:368] norm2_1 -> norm2_1
I0707 22:02:31.920491  4840 net.cpp:120] Setting up norm2_1
I0707 22:02:31.920495  4840 net.cpp:127] Top shape: 32 40 21 21 (564480)
I0707 22:02:31.920500  4840 layer_factory.hpp:74] Creating layer pool2_1
I0707 22:02:31.920505  4840 net.cpp:90] Creating Layer pool2_1
I0707 22:02:31.920507  4840 net.cpp:410] pool2_1 <- norm2_1
I0707 22:02:31.920512  4840 net.cpp:368] pool2_1 -> pool2_1
I0707 22:02:31.920517  4840 net.cpp:120] Setting up pool2_1
I0707 22:02:31.920522  4840 net.cpp:127] Top shape: 32 40 11 11 (154880)
I0707 22:02:31.920526  4840 layer_factory.hpp:74] Creating layer conv3_1
I0707 22:02:31.920531  4840 net.cpp:90] Creating Layer conv3_1
I0707 22:02:31.920533  4840 net.cpp:410] conv3_1 <- pool2_1
I0707 22:02:31.920537  4840 net.cpp:368] conv3_1 -> conv3_1
I0707 22:02:31.920543  4840 net.cpp:120] Setting up conv3_1
I0707 22:02:31.920981  4840 net.cpp:127] Top shape: 32 60 9 9 (155520)
I0707 22:02:31.920987  4840 layer_factory.hpp:74] Creating layer pool3_1
I0707 22:02:31.920994  4840 net.cpp:90] Creating Layer pool3_1
I0707 22:02:31.920996  4840 net.cpp:410] pool3_1 <- conv3_1
I0707 22:02:31.921000  4840 net.cpp:368] pool3_1 -> pool3_1
I0707 22:02:31.921005  4840 net.cpp:120] Setting up pool3_1
I0707 22:02:31.921010  4840 net.cpp:127] Top shape: 32 60 5 5 (48000)
I0707 22:02:31.921013  4840 layer_factory.hpp:74] Creating layer pool3_1_pool3_1_0_split
I0707 22:02:31.921020  4840 net.cpp:90] Creating Layer pool3_1_pool3_1_0_split
I0707 22:02:31.921022  4840 net.cpp:410] pool3_1_pool3_1_0_split <- pool3_1
I0707 22:02:31.921028  4840 net.cpp:368] pool3_1_pool3_1_0_split -> pool3_1_pool3_1_0_split_0
I0707 22:02:31.921033  4840 net.cpp:368] pool3_1_pool3_1_0_split -> pool3_1_pool3_1_0_split_1
I0707 22:02:31.921037  4840 net.cpp:120] Setting up pool3_1_pool3_1_0_split
I0707 22:02:31.921043  4840 net.cpp:127] Top shape: 32 60 5 5 (48000)
I0707 22:02:31.921047  4840 net.cpp:127] Top shape: 32 60 5 5 (48000)
I0707 22:02:31.921051  4840 layer_factory.hpp:74] Creating layer conv4_1
I0707 22:02:31.921056  4840 net.cpp:90] Creating Layer conv4_1
I0707 22:02:31.921059  4840 net.cpp:410] conv4_1 <- pool3_1_pool3_1_0_split_0
I0707 22:02:31.921064  4840 net.cpp:368] conv4_1 -> conv4_1
I0707 22:02:31.921069  4840 net.cpp:120] Setting up conv4_1
I0707 22:02:31.921460  4840 net.cpp:127] Top shape: 32 80 2 2 (10240)
I0707 22:02:31.921465  4840 layer_factory.hpp:74] Creating layer flatten_pool3_1
I0707 22:02:31.921471  4840 net.cpp:90] Creating Layer flatten_pool3_1
I0707 22:02:31.921474  4840 net.cpp:410] flatten_pool3_1 <- pool3_1_pool3_1_0_split_1
I0707 22:02:31.921479  4840 net.cpp:368] flatten_pool3_1 -> flatten_pool3_1
I0707 22:02:31.921483  4840 net.cpp:120] Setting up flatten_pool3_1
I0707 22:02:31.921489  4840 net.cpp:127] Top shape: 32 1500 (48000)
I0707 22:02:31.921493  4840 layer_factory.hpp:74] Creating layer flatten_conv4_1
I0707 22:02:31.921496  4840 net.cpp:90] Creating Layer flatten_conv4_1
I0707 22:02:31.921499  4840 net.cpp:410] flatten_conv4_1 <- conv4_1
I0707 22:02:31.921504  4840 net.cpp:368] flatten_conv4_1 -> flatten_conv4_1
I0707 22:02:31.921509  4840 net.cpp:120] Setting up flatten_conv4_1
I0707 22:02:31.921512  4840 net.cpp:127] Top shape: 32 320 (10240)
I0707 22:02:31.921515  4840 layer_factory.hpp:74] Creating layer contact_conv
I0707 22:02:31.921520  4840 net.cpp:90] Creating Layer contact_conv
I0707 22:02:31.921525  4840 net.cpp:410] contact_conv <- flatten_conv4_1
I0707 22:02:31.921527  4840 net.cpp:410] contact_conv <- flatten_pool3_1
I0707 22:02:31.921537  4840 net.cpp:368] contact_conv -> contact_conv
I0707 22:02:31.921542  4840 net.cpp:120] Setting up contact_conv
I0707 22:02:31.921550  4840 net.cpp:127] Top shape: 32 1820 (58240)
I0707 22:02:31.921553  4840 layer_factory.hpp:74] Creating layer deepid_1
I0707 22:02:31.921561  4840 net.cpp:90] Creating Layer deepid_1
I0707 22:02:31.921564  4840 net.cpp:410] deepid_1 <- contact_conv
I0707 22:02:31.921569  4840 net.cpp:368] deepid_1 -> deepid_1
I0707 22:02:31.921576  4840 net.cpp:120] Setting up deepid_1
I0707 22:02:31.927806  4840 net.cpp:127] Top shape: 32 160 (5120)
I0707 22:02:31.927829  4840 layer_factory.hpp:74] Creating layer relu6_1
I0707 22:02:31.927837  4840 net.cpp:90] Creating Layer relu6_1
I0707 22:02:31.927845  4840 net.cpp:410] relu6_1 <- deepid_1
I0707 22:02:31.927851  4840 net.cpp:357] relu6_1 -> deepid_1 (in-place)
I0707 22:02:31.927860  4840 net.cpp:120] Setting up relu6_1
I0707 22:02:31.927867  4840 net.cpp:127] Top shape: 32 160 (5120)
I0707 22:02:31.927873  4840 layer_factory.hpp:74] Creating layer drop6_1
I0707 22:02:31.927886  4840 net.cpp:90] Creating Layer drop6_1
I0707 22:02:31.927891  4840 net.cpp:410] drop6_1 <- deepid_1
I0707 22:02:31.927898  4840 net.cpp:357] drop6_1 -> deepid_1 (in-place)
I0707 22:02:31.927906  4840 net.cpp:120] Setting up drop6_1
I0707 22:02:31.927918  4840 net.cpp:127] Top shape: 32 160 (5120)
I0707 22:02:31.927924  4840 layer_factory.hpp:74] Creating layer fc8_1
I0707 22:02:31.927932  4840 net.cpp:90] Creating Layer fc8_1
I0707 22:02:31.927938  4840 net.cpp:410] fc8_1 <- deepid_1
I0707 22:02:31.927947  4840 net.cpp:368] fc8_1 -> fc8_1
I0707 22:02:31.927954  4840 net.cpp:120] Setting up fc8_1
I0707 22:02:31.962625  4840 net.cpp:127] Top shape: 32 10575 (338400)
I0707 22:02:31.962652  4840 layer_factory.hpp:74] Creating layer loss_1
I0707 22:02:31.962667  4840 net.cpp:90] Creating Layer loss_1
I0707 22:02:31.962674  4840 net.cpp:410] loss_1 <- fc8_1
I0707 22:02:31.962682  4840 net.cpp:410] loss_1 <- label_1
I0707 22:02:31.962690  4840 net.cpp:368] loss_1 -> loss_1
I0707 22:02:31.962702  4840 net.cpp:120] Setting up loss_1
I0707 22:02:31.962710  4840 layer_factory.hpp:74] Creating layer loss_1
…
I0707 22:02:31.964018  4840 net.cpp:287] The NetState phase (1) differed from the phase (0) specified by a rule in layer data_1
I0707 22:02:31.964128  4840 net.cpp:42] Initializing net from parameters: 
name: "face_train_test"
state {
  phase: TEST
}
layer {
  name: "data_1"
  type: "Data"
  top: "data_1"
  top: "label_1"
  include {
    phase: TEST
  }
  transform_param {
    mean_file: "/media/crw/MyBook/TrainData/LMDB/FaceRecognition/webface10575_48/mean.binaryproto"
  }
  data_param {
    source: "/media/crw/MyBook/TrainData/LMDB/FaceRecognition/webface10575_48/val"
    batch_size: 32
    backend: LMDB
  }
}
layer {
  name: "conv1_1"
  type: "Convolution"
  bottom: "data_1"
  top: "conv1_1"
  param {
    name: "conv1_w"
    lr_mult: 1
    decay_mult: 1
  }
  param {
    name: "conv1_b"
    lr_mult: 2
    decay_mult: 0
  }
  convolution_param {
    num_output: 20
    kernel_size: 4
    stride: 1
    weight_filler {
      type: "gaussian"
      std: 0.01
    }
    bias_filler {
      type: "constant"
      value: 0
    }
  }
}
layer {
  name: "relu1_1"
  type: "ReLU"
  bottom: "conv1_1"
  top: "conv1_1"
}
layer {
  name: "norm1_1"
  type: "LRN"
  bottom: "conv1_1"
  top: "norm1_1"
  lrn_param {
    local_size: 5
    alpha: 0.0001
    beta: 0.75
  }
}
layer {
  name: "pool1_1"
  type: "Pooling"
  bottom: "norm1_1"
  top: "pool1_1"
  pooling_param {
    pool: MAX
    kernel_size: 2
    stride: 2
  }
}
layer {
  name: "conv2_1"
  type: "Convolution"
  bottom: "pool1_1"
  top: "conv2_1"
  param {
    name: "conv2_w"
    lr_mult: 1
    decay_mult: 1
  }
  param {
    name: "conv2_b"
    lr_mult: 2
    decay_mult: 0
  }
  convolution_param {
    num_output: 40
    kernel_size: 3
    group: 2
    weight_filler {
      type: "gaussian"
      std: 0.01
    }
    bias_filler {
      type: "constant"
      value: 0.1
    }
  }
}
layer {
  name: "relu2_1"
  type: "ReLU"
  bottom: "conv2_1"
  top: "conv2_1"
}
layer {
  name: "norm2_1"
  type: "LRN"
  bottom: "conv2_1"
  top: "norm2_1"
  lrn_param {
    local_size: 5
    alpha: 0.0001
    beta: 0.75
  }
}
layer {
  name: "pool2_1"
  type: "Pooling"
  bottom: "norm2_1"
  top: "pool2_1"
  pooling_param {
    pool: MAX
    kernel_size: 2
    stride: 2
  }
}
layer {
  name: "conv3_1"
  type: "Convolution"
  bottom: "pool2_1"
  top: "conv3_1"
  param {
    name: "conv3_w"
    lr_mult: 1
    decay_mult: 1
  }
  param {
    name: "conv3_b"
    lr_mult: 2
    decay_mult: 0
  }
  convolution_param {
    num_output: 60
    kernel_size: 3
    weight_filler {
      type: "gaussian"
      std: 0.01
    }
    bias_filler {
      type: "constant"
      value: 0
    }
  }
}
layer {
  name: "pool3_1"
  type: "Pooling"
  bottom: "conv3_1"
  top: "pool3_1"
  pooling_param {
    pool: MAX
    kernel_size: 2
    stride: 2
  }
}
layer {
  name: "conv4_1"
  type: "Convolution"
  bottom: "pool3_1"
  top: "conv4_1"
  param {
    name: "conv4_w"
    lr_mult: 1
    decay_mult: 1
  }
  param {
    name: "conv4_b"
    lr_mult: 2
    decay_mult: 0
  }
  convolution_param {
    num_output: 80
    kernel_size: 2
    stride: 2
    weight_filler {
      type: "gaussian"
      std: 0.01
    }
    bias_filler {
      type: "constant"
      value: 0.1
    }
  }
}
layer {
  name: "flatten_pool3_1"
  type: "Flatten"
  bottom: "pool3_1"
  top: "flatten_pool3_1"
}
layer {
  name: "flatten_conv4_1"
  type: "Flatten"
  bottom: "conv4_1"
  top: "flatten_conv4_1"
}
layer {
  name: "contact_conv"
  type: "Concat"
  bottom: "flatten_conv4_1"
  bottom: "flatten_pool3_1"
  top: "contact_conv"
}
layer {
  name: "deepid_1"
  type: "InnerProduct"
  bottom: "contact_conv"
  top: "deepid_1"
  param {
    name: "fc6_w"
    lr_mult: 1
    decay_mult: 1
  }
  param {
    name: "fc6_b"
    lr_mult: 2
    decay_mult: 0
  }
  inner_product_param {
    num_output: 160
    weight_filler {
      type: "gaussian"
      std: 0.005
    }
    bias_filler {
      type: "constant"
      value: 0.1
    }
  }
}
layer {
  name: "relu6_1"
  type: "ReLU"
  bottom: "deepid_1"
  top: "deepid_1"
}
layer {
  name: "drop6_1"
  type: "Dropout"
  bottom: "deepid_1"
  top: "deepid_1"
  dropout_param {
    dropout_ratio: 0.5
  }
}
layer {
  name: "fc8_1"
  type: "InnerProduct"
  bottom: "deepid_1"
  top: "fc8_1"
  param {
    name: "fc8_w"
    lr_mult: 1
    decay_mult: 1
  }
  param {
    name: "fc8_b"
    lr_mult: 2
    decay_mult: 0
  }
  inner_product_param {
    num_output: 10575
    weight_filler {
      type: "gaussian"
      std: 0.01
    }
    bias_filler {
      type: "constant"
      value: 0
    }
  }
}
layer {
  name: "accuracy_1"
  type: "Accuracy"
  bottom: "fc8_1"
  bottom: "label_1"
  top: "accuracy_1"
  include {
    phase: TEST
  }
}
layer {
  name: "loss_1"
  type: "SoftmaxWithLoss"
  bottom: "fc8_1"
  bottom: "label_1"
  top: "loss_1"
}
I0707 22:02:31.964794  4840 layer_factory.hpp:74] Creating layer data_1
I0707 22:02:31.964807  4840 net.cpp:90] Creating Layer data_1
I0707 22:02:31.964814  4840 net.cpp:368] data_1 -> data_1
I0707 22:02:31.964823  4840 net.cpp:368] data_1 -> label_1
I0707 22:02:31.964833  4840 net.cpp:120] Setting up data_1
I0707 22:02:32.079378  4840 db.cpp:34] Opened lmdb /media/crw/MyBook/TrainData/LMDB/FaceRecognition/webface10575_48/val
I0707 22:02:32.117377  4840 data_layer.cpp:67] output data size: 32,3,48,48
I0707 22:02:32.117400  4840 data_transformer.cpp:22] Loading mean file from: /media/crw/MyBook/TrainData/LMDB/FaceRecognition/webface10575_48/mean.binaryproto
I0707 22:02:32.126660  4840 net.cpp:127] Top shape: 32 3 48 48 (221184)
I0707 22:02:32.126670  4840 net.cpp:127] Top shape: 32 (32)
I0707 22:02:32.126675  4840 layer_factory.hpp:74] Creating layer label_1_data_1_1_split
I0707 22:02:32.126729  4840 net.cpp:90] Creating Layer label_1_data_1_1_split
I0707 22:02:32.126736  4840 net.cpp:410] label_1_data_1_1_split <- label_1
I0707 22:02:32.126749  4840 net.cpp:368] label_1_data_1_1_split -> label_1_data_1_1_split_0
I0707 22:02:32.126761  4840 net.cpp:368] label_1_data_1_1_split -> label_1_data_1_1_split_1
I0707 22:02:32.126770  4840 net.cpp:120] Setting up label_1_data_1_1_split
I0707 22:02:32.126778  4840 net.cpp:127] Top shape: 32 (32)
I0707 22:02:32.126785  4840 net.cpp:127] Top shape: 32 (32)
I0707 22:02:32.126790  4840 layer_factory.hpp:74] Creating layer conv1_1
I0707 22:02:32.126801  4840 net.cpp:90] Creating Layer conv1_1
I0707 22:02:32.126807  4840 net.cpp:410] conv1_1 <- data_1
I0707 22:02:32.126814  4840 net.cpp:368] conv1_1 -> conv1_1
I0707 22:02:32.126822  4840 net.cpp:120] Setting up conv1_1
I0707 22:02:32.126876  4840 net.cpp:127] Top shape: 32 20 45 45 (1296000)
I0707 22:02:32.126886  4840 layer_factory.hpp:74] Creating layer relu1_1
I0707 22:02:32.126894  4840 net.cpp:90] Creating Layer relu1_1
I0707 22:02:32.126899  4840 net.cpp:410] relu1_1 <- conv1_1
I0707 22:02:32.126905  4840 net.cpp:357] relu1_1 -> conv1_1 (in-place)
I0707 22:02:32.126912  4840 net.cpp:120] Setting up relu1_1
I0707 22:02:32.126919  4840 net.cpp:127] Top shape: 32 20 45 45 (1296000)
I0707 22:02:32.126924  4840 layer_factory.hpp:74] Creating layer norm1_1
I0707 22:02:32.126932  4840 net.cpp:90] Creating Layer norm1_1
I0707 22:02:32.126937  4840 net.cpp:410] norm1_1 <- conv1_1
I0707 22:02:32.126945  4840 net.cpp:368] norm1_1 -> norm1_1
I0707 22:02:32.126950  4840 net.cpp:120] Setting up norm1_1
I0707 22:02:32.126958  4840 net.cpp:127] Top shape: 32 20 45 45 (1296000)
I0707 22:02:32.126970  4840 layer_factory.hpp:74] Creating layer pool1_1
I0707 22:02:32.126978  4840 net.cpp:90] Creating Layer pool1_1
I0707 22:02:32.126983  4840 net.cpp:410] pool1_1 <- norm1_1
I0707 22:02:32.126989  4840 net.cpp:368] pool1_1 -> pool1_1
I0707 22:02:32.126996  4840 net.cpp:120] Setting up pool1_1
I0707 22:02:32.127009  4840 net.cpp:127] Top shape: 32 20 23 23 (338560)
I0707 22:02:32.127014  4840 layer_factory.hpp:74] Creating layer conv2_1
I0707 22:02:32.127038  4840 net.cpp:90] Creating Layer conv2_1
I0707 22:02:32.127043  4840 net.cpp:410] conv2_1 <- pool1_1
I0707 22:02:32.127050  4840 net.cpp:368] conv2_1 -> conv2_1
I0707 22:02:32.127058  4840 net.cpp:120] Setting up conv2_1
I0707 22:02:32.127182  4840 net.cpp:127] Top shape: 32 40 21 21 (564480)
I0707 22:02:32.127190  4840 layer_factory.hpp:74] Creating layer relu2_1
I0707 22:02:32.127197  4840 net.cpp:90] Creating Layer relu2_1
I0707 22:02:32.127202  4840 net.cpp:410] relu2_1 <- conv2_1
I0707 22:02:32.127207  4840 net.cpp:357] relu2_1 -> conv2_1 (in-place)
I0707 22:02:32.127213  4840 net.cpp:120] Setting up relu2_1
I0707 22:02:32.127219  4840 net.cpp:127] Top shape: 32 40 21 21 (564480)
I0707 22:02:32.127224  4840 layer_factory.hpp:74] Creating layer norm2_1
I0707 22:02:32.127231  4840 net.cpp:90] Creating Layer norm2_1
I0707 22:02:32.127236  4840 net.cpp:410] norm2_1 <- conv2_1
I0707 22:02:32.127243  4840 net.cpp:368] norm2_1 -> norm2_1
I0707 22:02:32.127250  4840 net.cpp:120] Setting up norm2_1
I0707 22:02:32.127259  4840 net.cpp:127] Top shape: 32 40 21 21 (564480)
I0707 22:02:32.127264  4840 layer_factory.hpp:74] Creating layer pool2_1
I0707 22:02:32.127270  4840 net.cpp:90] Creating Layer pool2_1
I0707 22:02:32.127275  4840 net.cpp:410] pool2_1 <- norm2_1
I0707 22:02:32.127281  4840 net.cpp:368] pool2_1 -> pool2_1
I0707 22:02:32.127287  4840 net.cpp:120] Setting up pool2_1
I0707 22:02:32.127295  4840 net.cpp:127] Top shape: 32 40 11 11 (154880)
I0707 22:02:32.127300  4840 layer_factory.hpp:74] Creating layer conv3_1
I0707 22:02:32.127307  4840 net.cpp:90] Creating Layer conv3_1
I0707 22:02:32.127311  4840 net.cpp:410] conv3_1 <- pool2_1
I0707 22:02:32.127320  4840 net.cpp:368] conv3_1 -> conv3_1
I0707 22:02:32.127327  4840 net.cpp:120] Setting up conv3_1
I0707 22:02:32.128028  4840 net.cpp:127] Top shape: 32 60 9 9 (155520)
I0707 22:02:32.128041  4840 layer_factory.hpp:74] Creating layer pool3_1
I0707 22:02:32.128048  4840 net.cpp:90] Creating Layer pool3_1
I0707 22:02:32.128053  4840 net.cpp:410] pool3_1 <- conv3_1
I0707 22:02:32.128062  4840 net.cpp:368] pool3_1 -> pool3_1
I0707 22:02:32.128068  4840 net.cpp:120] Setting up pool3_1
I0707 22:02:32.128077  4840 net.cpp:127] Top shape: 32 60 5 5 (48000)
I0707 22:02:32.128082  4840 layer_factory.hpp:74] Creating layer pool3_1_pool3_1_0_split
I0707 22:02:32.128087  4840 net.cpp:90] Creating Layer pool3_1_pool3_1_0_split
I0707 22:02:32.128093  4840 net.cpp:410] pool3_1_pool3_1_0_split <- pool3_1
I0707 22:02:32.128100  4840 net.cpp:368] pool3_1_pool3_1_0_split -> pool3_1_pool3_1_0_split_0
I0707 22:02:32.128108  4840 net.cpp:368] pool3_1_pool3_1_0_split -> pool3_1_pool3_1_0_split_1
I0707 22:02:32.128113  4840 net.cpp:120] Setting up pool3_1_pool3_1_0_split
I0707 22:02:32.128120  4840 net.cpp:127] Top shape: 32 60 5 5 (48000)
I0707 22:02:32.128126  4840 net.cpp:127] Top shape: 32 60 5 5 (48000)
I0707 22:02:32.128130  4840 layer_factory.hpp:74] Creating layer conv4_1
I0707 22:02:32.128139  4840 net.cpp:90] Creating Layer conv4_1
I0707 22:02:32.128144  4840 net.cpp:410] conv4_1 <- pool3_1_pool3_1_0_split_0
I0707 22:02:32.128151  4840 net.cpp:368] conv4_1 -> conv4_1
I0707 22:02:32.128159  4840 net.cpp:120] Setting up conv4_1
I0707 22:02:32.128756  4840 net.cpp:127] Top shape: 32 80 2 2 (10240)
I0707 22:02:32.128764  4840 layer_factory.hpp:74] Creating layer flatten_pool3_1
I0707 22:02:32.128773  4840 net.cpp:90] Creating Layer flatten_pool3_1
I0707 22:02:32.128778  4840 net.cpp:410] flatten_pool3_1 <- pool3_1_pool3_1_0_split_1
I0707 22:02:32.128784  4840 net.cpp:368] flatten_pool3_1 -> flatten_pool3_1
I0707 22:02:32.128792  4840 net.cpp:120] Setting up flatten_pool3_1
I0707 22:02:32.128798  4840 net.cpp:127] Top shape: 32 1500 (48000)
I0707 22:02:32.128803  4840 layer_factory.hpp:74] Creating layer flatten_conv4_1
I0707 22:02:32.128809  4840 net.cpp:90] Creating Layer flatten_conv4_1
I0707 22:02:32.128813  4840 net.cpp:410] flatten_conv4_1 <- conv4_1
I0707 22:02:32.128819  4840 net.cpp:368] flatten_conv4_1 -> flatten_conv4_1
I0707 22:02:32.128836  4840 net.cpp:120] Setting up flatten_conv4_1
I0707 22:02:32.128844  4840 net.cpp:127] Top shape: 32 320 (10240)
I0707 22:02:32.128849  4840 layer_factory.hpp:74] Creating layer contact_conv
I0707 22:02:32.128859  4840 net.cpp:90] Creating Layer contact_conv
I0707 22:02:32.128865  4840 net.cpp:410] contact_conv <- flatten_conv4_1
I0707 22:02:32.128870  4840 net.cpp:410] contact_conv <- flatten_pool3_1
I0707 22:02:32.128877  4840 net.cpp:368] contact_conv -> contact_conv
I0707 22:02:32.128885  4840 net.cpp:120] Setting up contact_conv
I0707 22:02:32.128891  4840 net.cpp:127] Top shape: 32 1820 (58240)
I0707 22:02:32.128896  4840 layer_factory.hpp:74] Creating layer deepid_1
I0707 22:02:32.128904  4840 net.cpp:90] Creating Layer deepid_1
I0707 22:02:32.128909  4840 net.cpp:410] deepid_1 <- contact_conv
I0707 22:02:32.128917  4840 net.cpp:368] deepid_1 -> deepid_1
I0707 22:02:32.128926  4840 net.cpp:120] Setting up deepid_1
I0707 22:02:32.137661  4840 net.cpp:127] Top shape: 32 160 (5120)
I0707 22:02:32.137696  4840 layer_factory.hpp:74] Creating layer relu6_1
I0707 22:02:32.137709  4840 net.cpp:90] Creating Layer relu6_1
I0707 22:02:32.137719  4840 net.cpp:410] relu6_1 <- deepid_1
I0707 22:02:32.137734  4840 net.cpp:357] relu6_1 -> deepid_1 (in-place)
I0707 22:02:32.137753  4840 net.cpp:120] Setting up relu6_1
I0707 22:02:32.137763  4840 net.cpp:127] Top shape: 32 160 (5120)
I0707 22:02:32.137771  4840 layer_factory.hpp:74] Creating layer drop6_1
I0707 22:02:32.137783  4840 net.cpp:90] Creating Layer drop6_1
I0707 22:02:32.137791  4840 net.cpp:410] drop6_1 <- deepid_1
I0707 22:02:32.137801  4840 net.cpp:357] drop6_1 -> deepid_1 (in-place)
I0707 22:02:32.137812  4840 net.cpp:120] Setting up drop6_1
I0707 22:02:32.137822  4840 net.cpp:127] Top shape: 32 160 (5120)
I0707 22:02:32.137831  4840 layer_factory.hpp:74] Creating layer fc8_1
I0707 22:02:32.137843  4840 net.cpp:90] Creating Layer fc8_1
I0707 22:02:32.137852  4840 net.cpp:410] fc8_1 <- deepid_1
I0707 22:02:32.137862  4840 net.cpp:368] fc8_1 -> fc8_1
I0707 22:02:32.137873  4840 net.cpp:120] Setting up fc8_1
I0707 22:02:32.172689  4840 net.cpp:127] Top shape: 32 10575 (338400)
I0707 22:02:32.172715  4840 layer_factory.hpp:74] Creating layer fc8_1_fc8_1_0_split
I0707 22:02:32.172726  4840 net.cpp:90] Creating Layer fc8_1_fc8_1_0_split
I0707 22:02:32.172734  4840 net.cpp:410] fc8_1_fc8_1_0_split <- fc8_1
I0707 22:02:32.172742  4840 net.cpp:368] fc8_1_fc8_1_0_split -> fc8_1_fc8_1_0_split_0
I0707 22:02:32.172751  4840 net.cpp:368] fc8_1_fc8_1_0_split -> fc8_1_fc8_1_0_split_1
I0707 22:02:32.172760  4840 net.cpp:120] Setting up fc8_1_fc8_1_0_split
I0707 22:02:32.172767  4840 net.cpp:127] Top shape: 32 10575 (338400)
I0707 22:02:32.172773  4840 net.cpp:127] Top shape: 32 10575 (338400)
I0707 22:02:32.172780  4840 layer_factory.hpp:74] Creating layer accuracy_1
I0707 22:02:32.172790  4840 net.cpp:90] Creating Layer accuracy_1
I0707 22:02:32.172801  4840 net.cpp:410] accuracy_1 <- fc8_1_fc8_1_0_split_0
I0707 22:02:32.172806  4840 net.cpp:410] accuracy_1 <- label_1_data_1_1_split_0
I0707 22:02:32.172814  4840 net.cpp:368] accuracy_1 -> accuracy_1
I0707 22:02:32.172822  4840 net.cpp:120] Setting up accuracy_1
…
