…
I0707 14:14:57.986063  1588 net.cpp:287] The NetState phase (0) differed from the phase (1) specified by a rule in layer accuracy_1
I0707 14:14:57.986171  1588 net.cpp:42] Initializing net from parameters: 
name: "face_train_test"
state {
  phase: TRAIN
}
layer {
  name: "data_1"
  type: "Data"
  top: "data_1"
  top: "label_1"
  include {
    phase: TRAIN
  }
  transform_param {
    mean_file: "/media/crw/MyBook/TrainData/LMDB/FaceRecognition/webface10575_48/mean.binaryproto"
  }
  data_param {
    source: "/media/crw/MyBook/TrainData/LMDB/FaceRecognition/webface10575_48/train"
    batch_size: 32
    backend: LMDB
  }
}
layer {
  name: "conv1_1"
  type: "Convolution"
  bottom: "data_1"
  top: "conv1_1"
  param {
    name: "conv1_w"
    lr_mult: 1
    decay_mult: 1
  }
  param {
    name: "conv1_b"
    lr_mult: 2
    decay_mult: 0
  }
  convolution_param {
    num_output: 20
    kernel_size: 4
    stride: 1
    weight_filler {
      type: "gaussian"
      std: 0.01
    }
    bias_filler {
      type: "constant"
      value: 0
    }
  }
}
layer {
  name: "relu1_1"
  type: "ReLU"
  bottom: "conv1_1"
  top: "conv1_1"
}
layer {
  name: "norm1_1"
  type: "LRN"
  bottom: "conv1_1"
  top: "norm1_1"
  lrn_param {
    local_size: 5
    alpha: 0.0001
    beta: 0.75
  }
}
layer {
  name: "pool1_1"
  type: "Pooling"
  bottom: "norm1_1"
  top: "pool1_1"
  pooling_param {
    pool: MAX
    kernel_size: 2
    stride: 2
  }
}
layer {
  name: "conv2_1"
  type: "Convolution"
  bottom: "pool1_1"
  top: "conv2_1"
  param {
    name: "conv2_w"
    lr_mult: 1
    decay_mult: 1
  }
  param {
    name: "conv2_b"
    lr_mult: 2
    decay_mult: 0
  }
  convolution_param {
    num_output: 40
    kernel_size: 3
    group: 2
    weight_filler {
      type: "gaussian"
      std: 0.01
    }
    bias_filler {
      type: "constant"
      value: 0.1
    }
  }
}
layer {
  name: "relu2_1"
  type: "ReLU"
  bottom: "conv2_1"
  top: "conv2_1"
}
layer {
  name: "norm2_1"
  type: "LRN"
  bottom: "conv2_1"
  top: "norm2_1"
  lrn_param {
    local_size: 5
    alpha: 0.0001
    beta: 0.75
  }
}
layer {
  name: "pool2_1"
  type: "Pooling"
  bottom: "norm2_1"
  top: "pool2_1"
  pooling_param {
    pool: MAX
    kernel_size: 2
    stride: 2
  }
}
layer {
  name: "conv3_1"
  type: "Convolution"
  bottom: "pool2_1"
  top: "conv3_1"
  param {
    name: "conv3_w"
    lr_mult: 1
    decay_mult: 1
  }
  param {
    name: "conv3_b"
    lr_mult: 2
    decay_mult: 0
  }
  convolution_param {
    num_output: 60
    kernel_size: 3
    weight_filler {
      type: "gaussian"
      std: 0.01
    }
    bias_filler {
      type: "constant"
      value: 0
    }
  }
}
layer {
  name: "pool3_1"
  type: "Pooling"
  bottom: "conv3_1"
  top: "pool3_1"
  pooling_param {
    pool: MAX
    kernel_size: 2
    stride: 2
  }
}
layer {
  name: "conv4_1"
  type: "Convolution"
  bottom: "pool3_1"
  top: "conv4_1"
  param {
    name: "conv4_w"
    lr_mult: 1
    decay_mult: 1
  }
  param {
    name: "conv4_b"
    lr_mult: 2
    decay_mult: 0
  }
  convolution_param {
    num_output: 80
    kernel_size: 2
    stride: 2
    weight_filler {
      type: "gaussian"
      std: 0.01
    }
    bias_filler {
      type: "constant"
      value: 0.1
    }
  }
}
layer {
  name: "flatten_pool3_1"
  type: "Flatten"
  bottom: "pool3_1"
  top: "flatten_pool3_1"
}
layer {
  name: "flatten_conv4_1"
  type: "Flatten"
  bottom: "conv4_1"
  top: "flatten_conv4_1"
}
layer {
  name: "contact_conv"
  type: "Concat"
  bottom: "flatten_conv4_1"
  bottom: "flatten_pool3_1"
  top: "contact_conv"
}
layer {
  name: "deepid_1"
  type: "InnerProduct"
  bottom: "contact_conv"
  top: "deepid_1"
  param {
    name: "fc6_w"
    lr_mult: 1
    decay_mult: 1
  }
  param {
    name: "fc6_b"
    lr_mult: 2
    decay_mult: 0
  }
  inner_product_param {
    num_output: 160
    weight_filler {
      type: "gaussian"
      std: 0.005
    }
    bias_filler {
      type: "constant"
      value: 0.1
    }
  }
}
layer {
  name: "relu6_1"
  type: "ReLU"
  bottom: "deepid_1"
  top: "deepid_1"
}
layer {
  name: "drop6_1"
  type: "Dropout"
  bottom: "deepid_1"
  top: "deepid_1"
  dropout_param {
    dropout_ratio: 0.5
  }
}
layer {
  name: "fc8_1"
  type: "InnerProduct"
  bottom: "deepid_1"
  top: "fc8_1"
  param {
    name: "fc8_w"
    lr_mult: 1
    decay_mult: 1
  }
  param {
    name: "fc8_b"
    lr_mult: 2
    decay_mult: 0
  }
  inner_product_param {
    num_output: 10575
    weight_filler {
      type: "gaussian"
      std: 0.01
    }
    bias_filler {
      type: "constant"
      value: 0
    }
  }
}
layer {
  name: "loss_1"
  type: "SoftmaxWithLoss"
  bottom: "fc8_1"
  bottom: "label_1"
  top: "loss_1"
}
I0707 14:14:57.986313  1588 layer_factory.hpp:74] Creating layer data_1
I0707 14:14:57.986330  1588 net.cpp:90] Creating Layer data_1
I0707 14:14:57.986337  1588 net.cpp:368] data_1 -> data_1
I0707 14:14:57.986356  1588 net.cpp:368] data_1 -> label_1
I0707 14:14:57.986366  1588 net.cpp:120] Setting up data_1
I0707 14:14:58.018594  1588 db.cpp:34] Opened lmdb /media/crw/MyBook/TrainData/LMDB/FaceRecognition/webface10575_48/train
I0707 14:14:58.018666  1588 data_layer.cpp:67] output data size: 32,3,48,48
I0707 14:14:58.018682  1588 data_transformer.cpp:22] Loading mean file from: /media/crw/MyBook/TrainData/LMDB/FaceRecognition/webface10575_48/mean.binaryproto
I0707 14:14:58.074875  1588 net.cpp:127] Top shape: 32 3 48 48 (221184)
I0707 14:14:58.074901  1588 net.cpp:127] Top shape: 32 (32)
I0707 14:14:58.074910  1588 layer_factory.hpp:74] Creating layer conv1_1
I0707 14:14:58.074928  1588 net.cpp:90] Creating Layer conv1_1
I0707 14:14:58.074936  1588 net.cpp:410] conv1_1 <- data_1
I0707 14:14:58.074952  1588 net.cpp:368] conv1_1 -> conv1_1
I0707 14:14:58.074966  1588 net.cpp:120] Setting up conv1_1
I0707 14:14:58.075445  1588 net.cpp:127] Top shape: 32 20 45 45 (1296000)
I0707 14:14:58.075462  1588 layer_factory.hpp:74] Creating layer relu1_1
I0707 14:14:58.075474  1588 net.cpp:90] Creating Layer relu1_1
I0707 14:14:58.075479  1588 net.cpp:410] relu1_1 <- conv1_1
I0707 14:14:58.075487  1588 net.cpp:357] relu1_1 -> conv1_1 (in-place)
I0707 14:14:58.075495  1588 net.cpp:120] Setting up relu1_1
I0707 14:14:58.075505  1588 net.cpp:127] Top shape: 32 20 45 45 (1296000)
I0707 14:14:58.075510  1588 layer_factory.hpp:74] Creating layer norm1_1
I0707 14:14:58.075520  1588 net.cpp:90] Creating Layer norm1_1
I0707 14:14:58.075525  1588 net.cpp:410] norm1_1 <- conv1_1
I0707 14:14:58.075537  1588 net.cpp:368] norm1_1 -> norm1_1
I0707 14:14:58.075547  1588 net.cpp:120] Setting up norm1_1
I0707 14:14:58.075559  1588 net.cpp:127] Top shape: 32 20 45 45 (1296000)
I0707 14:14:58.075566  1588 layer_factory.hpp:74] Creating layer pool1_1
I0707 14:14:58.075574  1588 net.cpp:90] Creating Layer pool1_1
I0707 14:14:58.075579  1588 net.cpp:410] pool1_1 <- norm1_1
I0707 14:14:58.075587  1588 net.cpp:368] pool1_1 -> pool1_1
I0707 14:14:58.075595  1588 net.cpp:120] Setting up pool1_1
I0707 14:14:58.075615  1588 net.cpp:127] Top shape: 32 20 23 23 (338560)
I0707 14:14:58.075621  1588 layer_factory.hpp:74] Creating layer conv2_1
I0707 14:14:58.075637  1588 net.cpp:90] Creating Layer conv2_1
I0707 14:14:58.075644  1588 net.cpp:410] conv2_1 <- pool1_1
I0707 14:14:58.075652  1588 net.cpp:368] conv2_1 -> conv2_1
I0707 14:14:58.075661  1588 net.cpp:120] Setting up conv2_1
I0707 14:14:58.075781  1588 net.cpp:127] Top shape: 32 40 21 21 (564480)
I0707 14:14:58.075793  1588 layer_factory.hpp:74] Creating layer relu2_1
I0707 14:14:58.075824  1588 net.cpp:90] Creating Layer relu2_1
I0707 14:14:58.075830  1588 net.cpp:410] relu2_1 <- conv2_1
I0707 14:14:58.075839  1588 net.cpp:357] relu2_1 -> conv2_1 (in-place)
I0707 14:14:58.075845  1588 net.cpp:120] Setting up relu2_1
I0707 14:14:58.075852  1588 net.cpp:127] Top shape: 32 40 21 21 (564480)
I0707 14:14:58.075857  1588 layer_factory.hpp:74] Creating layer norm2_1
I0707 14:14:58.075865  1588 net.cpp:90] Creating Layer norm2_1
I0707 14:14:58.075870  1588 net.cpp:410] norm2_1 <- conv2_1
I0707 14:14:58.075876  1588 net.cpp:368] norm2_1 -> norm2_1
I0707 14:14:58.075884  1588 net.cpp:120] Setting up norm2_1
I0707 14:14:58.075893  1588 net.cpp:127] Top shape: 32 40 21 21 (564480)
I0707 14:14:58.075899  1588 layer_factory.hpp:74] Creating layer pool2_1
I0707 14:14:58.075908  1588 net.cpp:90] Creating Layer pool2_1
I0707 14:14:58.075913  1588 net.cpp:410] pool2_1 <- norm2_1
I0707 14:14:58.075922  1588 net.cpp:368] pool2_1 -> pool2_1
I0707 14:14:58.075932  1588 net.cpp:120] Setting up pool2_1
I0707 14:14:58.075940  1588 net.cpp:127] Top shape: 32 40 11 11 (154880)
I0707 14:14:58.075947  1588 layer_factory.hpp:74] Creating layer conv3_1
I0707 14:14:58.075955  1588 net.cpp:90] Creating Layer conv3_1
I0707 14:14:58.075961  1588 net.cpp:410] conv3_1 <- pool2_1
I0707 14:14:58.075968  1588 net.cpp:368] conv3_1 -> conv3_1
I0707 14:14:58.075978  1588 net.cpp:120] Setting up conv3_1
I0707 14:14:58.076575  1588 net.cpp:127] Top shape: 32 60 9 9 (155520)
I0707 14:14:58.076588  1588 layer_factory.hpp:74] Creating layer pool3_1
I0707 14:14:58.076598  1588 net.cpp:90] Creating Layer pool3_1
I0707 14:14:58.076603  1588 net.cpp:410] pool3_1 <- conv3_1
I0707 14:14:58.076611  1588 net.cpp:368] pool3_1 -> pool3_1
I0707 14:14:58.076618  1588 net.cpp:120] Setting up pool3_1
I0707 14:14:58.076627  1588 net.cpp:127] Top shape: 32 60 5 5 (48000)
I0707 14:14:58.076632  1588 layer_factory.hpp:74] Creating layer pool3_1_pool3_1_0_split
I0707 14:14:58.076642  1588 net.cpp:90] Creating Layer pool3_1_pool3_1_0_split
I0707 14:14:58.076647  1588 net.cpp:410] pool3_1_pool3_1_0_split <- pool3_1
I0707 14:14:58.076654  1588 net.cpp:368] pool3_1_pool3_1_0_split -> pool3_1_pool3_1_0_split_0
I0707 14:14:58.076663  1588 net.cpp:368] pool3_1_pool3_1_0_split -> pool3_1_pool3_1_0_split_1
I0707 14:14:58.076669  1588 net.cpp:120] Setting up pool3_1_pool3_1_0_split
I0707 14:14:58.076678  1588 net.cpp:127] Top shape: 32 60 5 5 (48000)
I0707 14:14:58.076684  1588 net.cpp:127] Top shape: 32 60 5 5 (48000)
I0707 14:14:58.076689  1588 layer_factory.hpp:74] Creating layer conv4_1
I0707 14:14:58.076699  1588 net.cpp:90] Creating Layer conv4_1
I0707 14:14:58.076704  1588 net.cpp:410] conv4_1 <- pool3_1_pool3_1_0_split_0
I0707 14:14:58.076711  1588 net.cpp:368] conv4_1 -> conv4_1
I0707 14:14:58.076719  1588 net.cpp:120] Setting up conv4_1
I0707 14:14:58.077198  1588 net.cpp:127] Top shape: 32 80 2 2 (10240)
I0707 14:14:58.077210  1588 layer_factory.hpp:74] Creating layer flatten_pool3_1
I0707 14:14:58.077219  1588 net.cpp:90] Creating Layer flatten_pool3_1
I0707 14:14:58.077222  1588 net.cpp:410] flatten_pool3_1 <- pool3_1_pool3_1_0_split_1
I0707 14:14:58.077227  1588 net.cpp:368] flatten_pool3_1 -> flatten_pool3_1
I0707 14:14:58.077234  1588 net.cpp:120] Setting up flatten_pool3_1
I0707 14:14:58.077239  1588 net.cpp:127] Top shape: 32 1500 (48000)
I0707 14:14:58.077242  1588 layer_factory.hpp:74] Creating layer flatten_conv4_1
I0707 14:14:58.077246  1588 net.cpp:90] Creating Layer flatten_conv4_1
I0707 14:14:58.077250  1588 net.cpp:410] flatten_conv4_1 <- conv4_1
I0707 14:14:58.077255  1588 net.cpp:368] flatten_conv4_1 -> flatten_conv4_1
I0707 14:14:58.077258  1588 net.cpp:120] Setting up flatten_conv4_1
I0707 14:14:58.077263  1588 net.cpp:127] Top shape: 32 320 (10240)
I0707 14:14:58.077266  1588 layer_factory.hpp:74] Creating layer contact_conv
I0707 14:14:58.077271  1588 net.cpp:90] Creating Layer contact_conv
I0707 14:14:58.077275  1588 net.cpp:410] contact_conv <- flatten_conv4_1
I0707 14:14:58.077278  1588 net.cpp:410] contact_conv <- flatten_pool3_1
I0707 14:14:58.077292  1588 net.cpp:368] contact_conv -> contact_conv
I0707 14:14:58.077297  1588 net.cpp:120] Setting up contact_conv
I0707 14:14:58.077304  1588 net.cpp:127] Top shape: 32 1820 (58240)
I0707 14:14:58.077308  1588 layer_factory.hpp:74] Creating layer deepid_1
I0707 14:14:58.077316  1588 net.cpp:90] Creating Layer deepid_1
I0707 14:14:58.077321  1588 net.cpp:410] deepid_1 <- contact_conv
I0707 14:14:58.077325  1588 net.cpp:368] deepid_1 -> deepid_1
I0707 14:14:58.077332  1588 net.cpp:120] Setting up deepid_1
I0707 14:14:58.083405  1588 net.cpp:127] Top shape: 32 160 (5120)
I0707 14:14:58.083431  1588 layer_factory.hpp:74] Creating layer relu6_1
I0707 14:14:58.083441  1588 net.cpp:90] Creating Layer relu6_1
I0707 14:14:58.083448  1588 net.cpp:410] relu6_1 <- deepid_1
I0707 14:14:58.083456  1588 net.cpp:357] relu6_1 -> deepid_1 (in-place)
I0707 14:14:58.083464  1588 net.cpp:120] Setting up relu6_1
I0707 14:14:58.083472  1588 net.cpp:127] Top shape: 32 160 (5120)
I0707 14:14:58.083477  1588 layer_factory.hpp:74] Creating layer drop6_1
I0707 14:14:58.083487  1588 net.cpp:90] Creating Layer drop6_1
I0707 14:14:58.083492  1588 net.cpp:410] drop6_1 <- deepid_1
I0707 14:14:58.083500  1588 net.cpp:357] drop6_1 -> deepid_1 (in-place)
I0707 14:14:58.083508  1588 net.cpp:120] Setting up drop6_1
I0707 14:14:58.083519  1588 net.cpp:127] Top shape: 32 160 (5120)
I0707 14:14:58.083524  1588 layer_factory.hpp:74] Creating layer fc8_1
I0707 14:14:58.083533  1588 net.cpp:90] Creating Layer fc8_1
I0707 14:14:58.083539  1588 net.cpp:410] fc8_1 <- deepid_1
I0707 14:14:58.083546  1588 net.cpp:368] fc8_1 -> fc8_1
I0707 14:14:58.083554  1588 net.cpp:120] Setting up fc8_1
I0707 14:14:58.118934  1588 net.cpp:127] Top shape: 32 10575 (338400)
I0707 14:14:58.118960  1588 layer_factory.hpp:74] Creating layer loss_1
I0707 14:14:58.118974  1588 net.cpp:90] Creating Layer loss_1
I0707 14:14:58.118983  1588 net.cpp:410] loss_1 <- fc8_1
I0707 14:14:58.118990  1588 net.cpp:410] loss_1 <- label_1
I0707 14:14:58.118999  1588 net.cpp:368] loss_1 -> loss_1
I0707 14:14:58.119009  1588 net.cpp:120] Setting up loss_1
I0707 14:14:58.119022  1588 layer_factory.hpp:74] Creating layer loss_1
…
I0707 14:14:58.120152  1588 net.cpp:287] The NetState phase (1) differed from the phase (0) specified by a rule in layer data_1
I0707 14:14:58.120262  1588 net.cpp:42] Initializing net from parameters: 
name: "face_train_test"
state {
  phase: TEST
}
layer {
  name: "data_1"
  type: "Data"
  top: "data_1"
  top: "label_1"
  include {
    phase: TEST
  }
  transform_param {
    mean_file: "/media/crw/MyBook/TrainData/LMDB/FaceRecognition/webface10575_48/mean.binaryproto"
  }
  data_param {
    source: "/media/crw/MyBook/TrainData/LMDB/FaceRecognition/webface10575_48/val"
    batch_size: 32
    backend: LMDB
  }
}
layer {
  name: "conv1_1"
  type: "Convolution"
  bottom: "data_1"
  top: "conv1_1"
  param {
    name: "conv1_w"
    lr_mult: 1
    decay_mult: 1
  }
  param {
    name: "conv1_b"
    lr_mult: 2
    decay_mult: 0
  }
  convolution_param {
    num_output: 20
    kernel_size: 4
    stride: 1
    weight_filler {
      type: "gaussian"
      std: 0.01
    }
    bias_filler {
      type: "constant"
      value: 0
    }
  }
}
layer {
  name: "relu1_1"
  type: "ReLU"
  bottom: "conv1_1"
  top: "conv1_1"
}
layer {
  name: "norm1_1"
  type: "LRN"
  bottom: "conv1_1"
  top: "norm1_1"
  lrn_param {
    local_size: 5
    alpha: 0.0001
    beta: 0.75
  }
}
layer {
  name: "pool1_1"
  type: "Pooling"
  bottom: "norm1_1"
  top: "pool1_1"
  pooling_param {
    pool: MAX
    kernel_size: 2
    stride: 2
  }
}
layer {
  name: "conv2_1"
  type: "Convolution"
  bottom: "pool1_1"
  top: "conv2_1"
  param {
    name: "conv2_w"
    lr_mult: 1
    decay_mult: 1
  }
  param {
    name: "conv2_b"
    lr_mult: 2
    decay_mult: 0
  }
  convolution_param {
    num_output: 40
    kernel_size: 3
    group: 2
    weight_filler {
      type: "gaussian"
      std: 0.01
    }
    bias_filler {
      type: "constant"
      value: 0.1
    }
  }
}
layer {
  name: "relu2_1"
  type: "ReLU"
  bottom: "conv2_1"
  top: "conv2_1"
}
layer {
  name: "norm2_1"
  type: "LRN"
  bottom: "conv2_1"
  top: "norm2_1"
  lrn_param {
    local_size: 5
    alpha: 0.0001
    beta: 0.75
  }
}
layer {
  name: "pool2_1"
  type: "Pooling"
  bottom: "norm2_1"
  top: "pool2_1"
  pooling_param {
    pool: MAX
    kernel_size: 2
    stride: 2
  }
}
layer {
  name: "conv3_1"
  type: "Convolution"
  bottom: "pool2_1"
  top: "conv3_1"
  param {
    name: "conv3_w"
    lr_mult: 1
    decay_mult: 1
  }
  param {
    name: "conv3_b"
    lr_mult: 2
    decay_mult: 0
  }
  convolution_param {
    num_output: 60
    kernel_size: 3
    weight_filler {
      type: "gaussian"
      std: 0.01
    }
    bias_filler {
      type: "constant"
      value: 0
    }
  }
}
layer {
  name: "pool3_1"
  type: "Pooling"
  bottom: "conv3_1"
  top: "pool3_1"
  pooling_param {
    pool: MAX
    kernel_size: 2
    stride: 2
  }
}
layer {
  name: "conv4_1"
  type: "Convolution"
  bottom: "pool3_1"
  top: "conv4_1"
  param {
    name: "conv4_w"
    lr_mult: 1
    decay_mult: 1
  }
  param {
    name: "conv4_b"
    lr_mult: 2
    decay_mult: 0
  }
  convolution_param {
    num_output: 80
    kernel_size: 2
    stride: 2
    weight_filler {
      type: "gaussian"
      std: 0.01
    }
    bias_filler {
      type: "constant"
      value: 0.1
    }
  }
}
layer {
  name: "flatten_pool3_1"
  type: "Flatten"
  bottom: "pool3_1"
  top: "flatten_pool3_1"
}
layer {
  name: "flatten_conv4_1"
  type: "Flatten"
  bottom: "conv4_1"
  top: "flatten_conv4_1"
}
layer {
  name: "contact_conv"
  type: "Concat"
  bottom: "flatten_conv4_1"
  bottom: "flatten_pool3_1"
  top: "contact_conv"
}
layer {
  name: "deepid_1"
  type: "InnerProduct"
  bottom: "contact_conv"
  top: "deepid_1"
  param {
    name: "fc6_w"
    lr_mult: 1
    decay_mult: 1
  }
  param {
    name: "fc6_b"
    lr_mult: 2
    decay_mult: 0
  }
  inner_product_param {
    num_output: 160
    weight_filler {
      type: "gaussian"
      std: 0.005
    }
    bias_filler {
      type: "constant"
      value: 0.1
    }
  }
}
layer {
  name: "relu6_1"
  type: "ReLU"
  bottom: "deepid_1"
  top: "deepid_1"
}
layer {
  name: "drop6_1"
  type: "Dropout"
  bottom: "deepid_1"
  top: "deepid_1"
  dropout_param {
    dropout_ratio: 0.5
  }
}
layer {
  name: "fc8_1"
  type: "InnerProduct"
  bottom: "deepid_1"
  top: "fc8_1"
  param {
    name: "fc8_w"
    lr_mult: 1
    decay_mult: 1
  }
  param {
    name: "fc8_b"
    lr_mult: 2
    decay_mult: 0
  }
  inner_product_param {
    num_output: 10575
    weight_filler {
      type: "gaussian"
      std: 0.01
    }
    bias_filler {
      type: "constant"
      value: 0
    }
  }
}
layer {
  name: "accuracy_1"
  type: "Accuracy"
  bottom: "fc8_1"
  bottom: "label_1"
  top: "accuracy_1"
  include {
    phase: TEST
  }
}
layer {
  name: "loss_1"
  type: "SoftmaxWithLoss"
  bottom: "fc8_1"
  bottom: "label_1"
  top: "loss_1"
}
I0707 14:14:58.120931  1588 layer_factory.hpp:74] Creating layer data_1
I0707 14:14:58.120944  1588 net.cpp:90] Creating Layer data_1
I0707 14:14:58.120949  1588 net.cpp:368] data_1 -> data_1
I0707 14:14:58.120959  1588 net.cpp:368] data_1 -> label_1
I0707 14:14:58.120966  1588 net.cpp:120] Setting up data_1
I0707 14:14:58.142674  1588 db.cpp:34] Opened lmdb /media/crw/MyBook/TrainData/LMDB/FaceRecognition/webface10575_48/val
I0707 14:14:58.142721  1588 data_layer.cpp:67] output data size: 32,3,48,48
I0707 14:14:58.142732  1588 data_transformer.cpp:22] Loading mean file from: /media/crw/MyBook/TrainData/LMDB/FaceRecognition/webface10575_48/mean.binaryproto
I0707 14:14:58.143133  1588 net.cpp:127] Top shape: 32 3 48 48 (221184)
I0707 14:14:58.143147  1588 net.cpp:127] Top shape: 32 (32)
I0707 14:14:58.143154  1588 layer_factory.hpp:74] Creating layer label_1_data_1_1_split
I0707 14:14:58.143165  1588 net.cpp:90] Creating Layer label_1_data_1_1_split
I0707 14:14:58.143182  1588 net.cpp:410] label_1_data_1_1_split <- label_1
I0707 14:14:58.143192  1588 net.cpp:368] label_1_data_1_1_split -> label_1_data_1_1_split_0
I0707 14:14:58.143201  1588 net.cpp:368] label_1_data_1_1_split -> label_1_data_1_1_split_1
I0707 14:14:58.143214  1588 net.cpp:120] Setting up label_1_data_1_1_split
I0707 14:14:58.143223  1588 net.cpp:127] Top shape: 32 (32)
I0707 14:14:58.143229  1588 net.cpp:127] Top shape: 32 (32)
I0707 14:14:58.143234  1588 layer_factory.hpp:74] Creating layer conv1_1
I0707 14:14:58.143249  1588 net.cpp:90] Creating Layer conv1_1
I0707 14:14:58.143255  1588 net.cpp:410] conv1_1 <- data_1
I0707 14:14:58.143262  1588 net.cpp:368] conv1_1 -> conv1_1
I0707 14:14:58.143271  1588 net.cpp:120] Setting up conv1_1
I0707 14:14:58.143312  1588 net.cpp:127] Top shape: 32 20 45 45 (1296000)
I0707 14:14:58.143322  1588 layer_factory.hpp:74] Creating layer relu1_1
I0707 14:14:58.143332  1588 net.cpp:90] Creating Layer relu1_1
I0707 14:14:58.143337  1588 net.cpp:410] relu1_1 <- conv1_1
I0707 14:14:58.143343  1588 net.cpp:357] relu1_1 -> conv1_1 (in-place)
I0707 14:14:58.143350  1588 net.cpp:120] Setting up relu1_1
I0707 14:14:58.143358  1588 net.cpp:127] Top shape: 32 20 45 45 (1296000)
I0707 14:14:58.143363  1588 layer_factory.hpp:74] Creating layer norm1_1
I0707 14:14:58.143373  1588 net.cpp:90] Creating Layer norm1_1
I0707 14:14:58.143378  1588 net.cpp:410] norm1_1 <- conv1_1
I0707 14:14:58.143384  1588 net.cpp:368] norm1_1 -> norm1_1
I0707 14:14:58.143393  1588 net.cpp:120] Setting up norm1_1
I0707 14:14:58.143404  1588 net.cpp:127] Top shape: 32 20 45 45 (1296000)
I0707 14:14:58.143410  1588 layer_factory.hpp:74] Creating layer pool1_1
I0707 14:14:58.143419  1588 net.cpp:90] Creating Layer pool1_1
I0707 14:14:58.143424  1588 net.cpp:410] pool1_1 <- norm1_1
I0707 14:14:58.143431  1588 net.cpp:368] pool1_1 -> pool1_1
I0707 14:14:58.143438  1588 net.cpp:120] Setting up pool1_1
I0707 14:14:58.143446  1588 net.cpp:127] Top shape: 32 20 23 23 (338560)
I0707 14:14:58.143457  1588 layer_factory.hpp:74] Creating layer conv2_1
I0707 14:14:58.143483  1588 net.cpp:90] Creating Layer conv2_1
I0707 14:14:58.143489  1588 net.cpp:410] conv2_1 <- pool1_1
I0707 14:14:58.143496  1588 net.cpp:368] conv2_1 -> conv2_1
I0707 14:14:58.143504  1588 net.cpp:120] Setting up conv2_1
I0707 14:14:58.143605  1588 net.cpp:127] Top shape: 32 40 21 21 (564480)
I0707 14:14:58.143617  1588 layer_factory.hpp:74] Creating layer relu2_1
I0707 14:14:58.143625  1588 net.cpp:90] Creating Layer relu2_1
I0707 14:14:58.143631  1588 net.cpp:410] relu2_1 <- conv2_1
I0707 14:14:58.143637  1588 net.cpp:357] relu2_1 -> conv2_1 (in-place)
I0707 14:14:58.143645  1588 net.cpp:120] Setting up relu2_1
I0707 14:14:58.143651  1588 net.cpp:127] Top shape: 32 40 21 21 (564480)
I0707 14:14:58.143656  1588 layer_factory.hpp:74] Creating layer norm2_1
I0707 14:14:58.143664  1588 net.cpp:90] Creating Layer norm2_1
I0707 14:14:58.143671  1588 net.cpp:410] norm2_1 <- conv2_1
I0707 14:14:58.143676  1588 net.cpp:368] norm2_1 -> norm2_1
I0707 14:14:58.143683  1588 net.cpp:120] Setting up norm2_1
I0707 14:14:58.143693  1588 net.cpp:127] Top shape: 32 40 21 21 (564480)
I0707 14:14:58.143700  1588 layer_factory.hpp:74] Creating layer pool2_1
I0707 14:14:58.143707  1588 net.cpp:90] Creating Layer pool2_1
I0707 14:14:58.143713  1588 net.cpp:410] pool2_1 <- norm2_1
I0707 14:14:58.143719  1588 net.cpp:368] pool2_1 -> pool2_1
I0707 14:14:58.143726  1588 net.cpp:120] Setting up pool2_1
I0707 14:14:58.143733  1588 net.cpp:127] Top shape: 32 40 11 11 (154880)
I0707 14:14:58.143739  1588 layer_factory.hpp:74] Creating layer conv3_1
I0707 14:14:58.143746  1588 net.cpp:90] Creating Layer conv3_1
I0707 14:14:58.143751  1588 net.cpp:410] conv3_1 <- pool2_1
I0707 14:14:58.143759  1588 net.cpp:368] conv3_1 -> conv3_1
I0707 14:14:58.143766  1588 net.cpp:120] Setting up conv3_1
I0707 14:14:58.144223  1588 net.cpp:127] Top shape: 32 60 9 9 (155520)
I0707 14:14:58.144239  1588 layer_factory.hpp:74] Creating layer pool3_1
I0707 14:14:58.144253  1588 net.cpp:90] Creating Layer pool3_1
I0707 14:14:58.144260  1588 net.cpp:410] pool3_1 <- conv3_1
I0707 14:14:58.144268  1588 net.cpp:368] pool3_1 -> pool3_1
I0707 14:14:58.144275  1588 net.cpp:120] Setting up pool3_1
I0707 14:14:58.144284  1588 net.cpp:127] Top shape: 32 60 5 5 (48000)
I0707 14:14:58.144289  1588 layer_factory.hpp:74] Creating layer pool3_1_pool3_1_0_split
I0707 14:14:58.144296  1588 net.cpp:90] Creating Layer pool3_1_pool3_1_0_split
I0707 14:14:58.144301  1588 net.cpp:410] pool3_1_pool3_1_0_split <- pool3_1
I0707 14:14:58.144307  1588 net.cpp:368] pool3_1_pool3_1_0_split -> pool3_1_pool3_1_0_split_0
I0707 14:14:58.144316  1588 net.cpp:368] pool3_1_pool3_1_0_split -> pool3_1_pool3_1_0_split_1
I0707 14:14:58.144322  1588 net.cpp:120] Setting up pool3_1_pool3_1_0_split
I0707 14:14:58.144330  1588 net.cpp:127] Top shape: 32 60 5 5 (48000)
I0707 14:14:58.144335  1588 net.cpp:127] Top shape: 32 60 5 5 (48000)
I0707 14:14:58.144340  1588 layer_factory.hpp:74] Creating layer conv4_1
I0707 14:14:58.144348  1588 net.cpp:90] Creating Layer conv4_1
I0707 14:14:58.144353  1588 net.cpp:410] conv4_1 <- pool3_1_pool3_1_0_split_0
I0707 14:14:58.144361  1588 net.cpp:368] conv4_1 -> conv4_1
I0707 14:14:58.144369  1588 net.cpp:120] Setting up conv4_1
I0707 14:14:58.144765  1588 net.cpp:127] Top shape: 32 80 2 2 (10240)
I0707 14:14:58.144773  1588 layer_factory.hpp:74] Creating layer flatten_pool3_1
I0707 14:14:58.144780  1588 net.cpp:90] Creating Layer flatten_pool3_1
I0707 14:14:58.144788  1588 net.cpp:410] flatten_pool3_1 <- pool3_1_pool3_1_0_split_1
I0707 14:14:58.144793  1588 net.cpp:368] flatten_pool3_1 -> flatten_pool3_1
I0707 14:14:58.144800  1588 net.cpp:120] Setting up flatten_pool3_1
I0707 14:14:58.144808  1588 net.cpp:127] Top shape: 32 1500 (48000)
I0707 14:14:58.144814  1588 layer_factory.hpp:74] Creating layer flatten_conv4_1
I0707 14:14:58.144819  1588 net.cpp:90] Creating Layer flatten_conv4_1
I0707 14:14:58.144824  1588 net.cpp:410] flatten_conv4_1 <- conv4_1
I0707 14:14:58.144831  1588 net.cpp:368] flatten_conv4_1 -> flatten_conv4_1
I0707 14:14:58.144846  1588 net.cpp:120] Setting up flatten_conv4_1
I0707 14:14:58.144855  1588 net.cpp:127] Top shape: 32 320 (10240)
I0707 14:14:58.144860  1588 layer_factory.hpp:74] Creating layer contact_conv
I0707 14:14:58.144868  1588 net.cpp:90] Creating Layer contact_conv
I0707 14:14:58.144875  1588 net.cpp:410] contact_conv <- flatten_conv4_1
I0707 14:14:58.144881  1588 net.cpp:410] contact_conv <- flatten_pool3_1
I0707 14:14:58.144886  1588 net.cpp:368] contact_conv -> contact_conv
I0707 14:14:58.144894  1588 net.cpp:120] Setting up contact_conv
I0707 14:14:58.144902  1588 net.cpp:127] Top shape: 32 1820 (58240)
I0707 14:14:58.144907  1588 layer_factory.hpp:74] Creating layer deepid_1
I0707 14:14:58.144915  1588 net.cpp:90] Creating Layer deepid_1
I0707 14:14:58.144922  1588 net.cpp:410] deepid_1 <- contact_conv
I0707 14:14:58.144928  1588 net.cpp:368] deepid_1 -> deepid_1
I0707 14:14:58.144937  1588 net.cpp:120] Setting up deepid_1
I0707 14:14:58.151695  1588 net.cpp:127] Top shape: 32 160 (5120)
I0707 14:14:58.151720  1588 layer_factory.hpp:74] Creating layer relu6_1
I0707 14:14:58.151729  1588 net.cpp:90] Creating Layer relu6_1
I0707 14:14:58.151736  1588 net.cpp:410] relu6_1 <- deepid_1
I0707 14:14:58.151746  1588 net.cpp:357] relu6_1 -> deepid_1 (in-place)
I0707 14:14:58.151756  1588 net.cpp:120] Setting up relu6_1
I0707 14:14:58.151763  1588 net.cpp:127] Top shape: 32 160 (5120)
I0707 14:14:58.151769  1588 layer_factory.hpp:74] Creating layer drop6_1
I0707 14:14:58.151778  1588 net.cpp:90] Creating Layer drop6_1
I0707 14:14:58.151784  1588 net.cpp:410] drop6_1 <- deepid_1
I0707 14:14:58.151792  1588 net.cpp:357] drop6_1 -> deepid_1 (in-place)
I0707 14:14:58.151800  1588 net.cpp:120] Setting up drop6_1
I0707 14:14:58.151808  1588 net.cpp:127] Top shape: 32 160 (5120)
I0707 14:14:58.151815  1588 layer_factory.hpp:74] Creating layer fc8_1
I0707 14:14:58.151823  1588 net.cpp:90] Creating Layer fc8_1
I0707 14:14:58.151830  1588 net.cpp:410] fc8_1 <- deepid_1
I0707 14:14:58.151837  1588 net.cpp:368] fc8_1 -> fc8_1
I0707 14:14:58.151846  1588 net.cpp:120] Setting up fc8_1
I0707 14:14:58.186767  1588 net.cpp:127] Top shape: 32 10575 (338400)
I0707 14:14:58.186794  1588 layer_factory.hpp:74] Creating layer fc8_1_fc8_1_0_split
I0707 14:14:58.186805  1588 net.cpp:90] Creating Layer fc8_1_fc8_1_0_split
I0707 14:14:58.186811  1588 net.cpp:410] fc8_1_fc8_1_0_split <- fc8_1
I0707 14:14:58.186820  1588 net.cpp:368] fc8_1_fc8_1_0_split -> fc8_1_fc8_1_0_split_0
I0707 14:14:58.186828  1588 net.cpp:368] fc8_1_fc8_1_0_split -> fc8_1_fc8_1_0_split_1
I0707 14:14:58.186836  1588 net.cpp:120] Setting up fc8_1_fc8_1_0_split
I0707 14:14:58.186843  1588 net.cpp:127] Top shape: 32 10575 (338400)
I0707 14:14:58.186849  1588 net.cpp:127] Top shape: 32 10575 (338400)
I0707 14:14:58.186856  1588 layer_factory.hpp:74] Creating layer accuracy_1
I0707 14:14:58.186864  1588 net.cpp:90] Creating Layer accuracy_1
I0707 14:14:58.186871  1588 net.cpp:410] accuracy_1 <- fc8_1_fc8_1_0_split_0
I0707 14:14:58.186877  1588 net.cpp:410] accuracy_1 <- label_1_data_1_1_split_0
I0707 14:14:58.186883  1588 net.cpp:368] accuracy_1 -> accuracy_1
I0707 14:14:58.186890  1588 net.cpp:120] Setting up accuracy_1
…
