…
I1028 13:30:14.516031  7687 net.cpp:287] The NetState phase (0) differed from the phase (1) specified by a rule in layer accuracy_1
I1028 13:30:14.516146  7687 net.cpp:42] Initializing net from parameters: 
name: "face_train_test"
state {
  phase: TRAIN
}
layer {
  name: "data_1"
  type: "Data"
  top: "data_1"
  top: "label_1"
  include {
    phase: TRAIN
  }
  transform_param {
    mean_file: "/media/crw/MyBook/TrainData/LMDB/FaceRecognition/webface10575_48/mean.binaryproto"
  }
  data_param {
    source: "/media/crw/MyBook/TrainData/LMDB/FaceRecognition/webface10575_48/train"
    batch_size: 32
    backend: LMDB
  }
}
layer {
  name: "conv1_1"
  type: "Convolution"
  bottom: "data_1"
  top: "conv1_1"
  param {
    name: "conv1_w"
    lr_mult: 1
    decay_mult: 1
  }
  param {
    name: "conv1_b"
    lr_mult: 2
    decay_mult: 0
  }
  convolution_param {
    num_output: 20
    kernel_size: 4
    stride: 1
    weight_filler {
      type: "gaussian"
      std: 0.01
    }
    bias_filler {
      type: "constant"
      value: 0
    }
  }
}
layer {
  name: "relu1_1"
  type: "ReLU"
  bottom: "conv1_1"
  top: "conv1_1"
}
layer {
  name: "norm1_1"
  type: "LRN"
  bottom: "conv1_1"
  top: "norm1_1"
  lrn_param {
    local_size: 5
    alpha: 0.0001
    beta: 0.75
  }
}
layer {
  name: "pool1_1"
  type: "Pooling"
  bottom: "norm1_1"
  top: "pool1_1"
  pooling_param {
    pool: MAX
    kernel_size: 2
    stride: 2
  }
}
layer {
  name: "conv2_1"
  type: "Convolution"
  bottom: "pool1_1"
  top: "conv2_1"
  param {
    name: "conv2_w"
    lr_mult: 1
    decay_mult: 1
  }
  param {
    name: "conv2_b"
    lr_mult: 2
    decay_mult: 0
  }
  convolution_param {
    num_output: 40
    kernel_size: 3
    group: 2
    weight_filler {
      type: "gaussian"
      std: 0.01
    }
    bias_filler {
      type: "constant"
      value: 0.1
    }
  }
}
layer {
  name: "relu2_1"
  type: "ReLU"
  bottom: "conv2_1"
  top: "conv2_1"
}
layer {
  name: "norm2_1"
  type: "LRN"
  bottom: "conv2_1"
  top: "norm2_1"
  lrn_param {
    local_size: 5
    alpha: 0.0001
    beta: 0.75
  }
}
layer {
  name: "pool2_1"
  type: "Pooling"
  bottom: "norm2_1"
  top: "pool2_1"
  pooling_param {
    pool: MAX
    kernel_size: 2
    stride: 2
  }
}
layer {
  name: "conv3_1"
  type: "Convolution"
  bottom: "pool2_1"
  top: "conv3_1"
  param {
    name: "conv3_w"
    lr_mult: 1
    decay_mult: 1
  }
  param {
    name: "conv3_b"
    lr_mult: 2
    decay_mult: 0
  }
  convolution_param {
    num_output: 60
    kernel_size: 3
    weight_filler {
      type: "gaussian"
      std: 0.01
    }
    bias_filler {
      type: "constant"
      value: 0
    }
  }
}
layer {
  name: "pool3_1"
  type: "Pooling"
  bottom: "conv3_1"
  top: "pool3_1"
  pooling_param {
    pool: MAX
    kernel_size: 2
    stride: 2
  }
}
layer {
  name: "conv4_1"
  type: "Convolution"
  bottom: "pool3_1"
  top: "conv4_1"
  param {
    name: "conv4_w"
    lr_mult: 1
    decay_mult: 1
  }
  param {
    name: "conv4_b"
    lr_mult: 2
    decay_mult: 0
  }
  convolution_param {
    num_output: 80
    kernel_size: 2
    stride: 2
    weight_filler {
      type: "gaussian"
      std: 0.01
    }
    bias_filler {
      type: "constant"
      value: 0.1
    }
  }
}
layer {
  name: "flatten_pool3_1"
  type: "Flatten"
  bottom: "pool3_1"
  top: "flatten_pool3_1"
}
layer {
  name: "flatten_conv4_1"
  type: "Flatten"
  bottom: "conv4_1"
  top: "flatten_conv4_1"
}
layer {
  name: "contact_conv"
  type: "Concat"
  bottom: "flatten_conv4_1"
  bottom: "flatten_pool3_1"
  top: "contact_conv"
}
layer {
  name: "deepid_1"
  type: "InnerProduct"
  bottom: "contact_conv"
  top: "deepid_1"
  param {
    name: "fc6_w"
    lr_mult: 1
    decay_mult: 1
  }
  param {
    name: "fc6_b"
    lr_mult: 2
    decay_mult: 0
  }
  inner_product_param {
    num_output: 160
    weight_filler {
      type: "gaussian"
      std: 0.005
    }
    bias_filler {
      type: "constant"
      value: 0.1
    }
  }
}
layer {
  name: "relu6_1"
  type: "ReLU"
  bottom: "deepid_1"
  top: "deepid_1"
}
layer {
  name: "drop6_1"
  type: "Dropout"
  bottom: "deepid_1"
  top: "deepid_1"
  dropout_param {
    dropout_ratio: 0.5
  }
}
layer {
  name: "fc8_1"
  type: "InnerProduct"
  bottom: "deepid_1"
  top: "fc8_1"
  param {
    name: "fc8_w"
    lr_mult: 1
    decay_mult: 1
  }
  param {
    name: "fc8_b"
    lr_mult: 2
    decay_mult: 0
  }
  inner_product_param {
    num_output: 10575
    weight_filler {
      type: "gaussian"
      std: 0.01
    }
    bias_filler {
      type: "constant"
      value: 0
    }
  }
}
layer {
  name: "loss_1"
  type: "SoftmaxWithLoss"
  bottom: "fc8_1"
  bottom: "label_1"
  top: "loss_1"
}
I1028 13:30:14.517043  7687 layer_factory.hpp:74] Creating layer data_1
I1028 13:30:14.517062  7687 net.cpp:90] Creating Layer data_1
I1028 13:30:14.517072  7687 net.cpp:368] data_1 -> data_1
I1028 13:30:14.524073  7687 net.cpp:368] data_1 -> label_1
I1028 13:30:14.524094  7687 net.cpp:120] Setting up data_1
I1028 13:30:15.097671  7687 db.cpp:34] Opened lmdb /media/crw/MyBook/TrainData/LMDB/FaceRecognition/webface10575_48/train
I1028 13:30:15.142915  7687 data_layer.cpp:67] output data size: 32,3,48,48
I1028 13:30:15.142943  7687 data_transformer.cpp:22] Loading mean file from: /media/crw/MyBook/TrainData/LMDB/FaceRecognition/webface10575_48/mean.binaryproto
I1028 13:30:15.209637  7687 net.cpp:127] Top shape: 32 3 48 48 (221184)
I1028 13:30:15.209657  7687 net.cpp:127] Top shape: 32 (32)
I1028 13:30:15.209666  7687 layer_factory.hpp:74] Creating layer conv1_1
I1028 13:30:15.209691  7687 net.cpp:90] Creating Layer conv1_1
I1028 13:30:15.209700  7687 net.cpp:410] conv1_1 <- data_1
I1028 13:30:15.209731  7687 net.cpp:368] conv1_1 -> conv1_1
I1028 13:30:15.209748  7687 net.cpp:120] Setting up conv1_1
I1028 13:30:15.210842  7687 net.cpp:127] Top shape: 32 20 45 45 (1296000)
I1028 13:30:15.210861  7687 layer_factory.hpp:74] Creating layer relu1_1
I1028 13:30:15.210872  7687 net.cpp:90] Creating Layer relu1_1
I1028 13:30:15.210880  7687 net.cpp:410] relu1_1 <- conv1_1
I1028 13:30:15.210886  7687 net.cpp:357] relu1_1 -> conv1_1 (in-place)
I1028 13:30:15.210894  7687 net.cpp:120] Setting up relu1_1
I1028 13:30:15.211218  7687 net.cpp:127] Top shape: 32 20 45 45 (1296000)
I1028 13:30:15.211233  7687 layer_factory.hpp:74] Creating layer norm1_1
I1028 13:30:15.211244  7687 net.cpp:90] Creating Layer norm1_1
I1028 13:30:15.211253  7687 net.cpp:410] norm1_1 <- conv1_1
I1028 13:30:15.211261  7687 net.cpp:368] norm1_1 -> norm1_1
I1028 13:30:15.211269  7687 net.cpp:120] Setting up norm1_1
I1028 13:30:15.211377  7687 net.cpp:127] Top shape: 32 20 45 45 (1296000)
I1028 13:30:15.211391  7687 layer_factory.hpp:74] Creating layer pool1_1
I1028 13:30:15.211403  7687 net.cpp:90] Creating Layer pool1_1
I1028 13:30:15.211411  7687 net.cpp:410] pool1_1 <- norm1_1
I1028 13:30:15.211419  7687 net.cpp:368] pool1_1 -> pool1_1
I1028 13:30:15.211429  7687 net.cpp:120] Setting up pool1_1
I1028 13:30:15.211446  7687 net.cpp:127] Top shape: 32 20 23 23 (338560)
I1028 13:30:15.211452  7687 layer_factory.hpp:74] Creating layer conv2_1
I1028 13:30:15.211462  7687 net.cpp:90] Creating Layer conv2_1
I1028 13:30:15.211468  7687 net.cpp:410] conv2_1 <- pool1_1
I1028 13:30:15.211474  7687 net.cpp:368] conv2_1 -> conv2_1
I1028 13:30:15.211483  7687 net.cpp:120] Setting up conv2_1
I1028 13:30:15.211568  7687 net.cpp:127] Top shape: 32 40 21 21 (564480)
I1028 13:30:15.211578  7687 layer_factory.hpp:74] Creating layer relu2_1
I1028 13:30:15.211596  7687 net.cpp:90] Creating Layer relu2_1
I1028 13:30:15.211602  7687 net.cpp:410] relu2_1 <- conv2_1
I1028 13:30:15.211609  7687 net.cpp:357] relu2_1 -> conv2_1 (in-place)
I1028 13:30:15.211616  7687 net.cpp:120] Setting up relu2_1
I1028 13:30:15.211623  7687 net.cpp:127] Top shape: 32 40 21 21 (564480)
I1028 13:30:15.211629  7687 layer_factory.hpp:74] Creating layer norm2_1
I1028 13:30:15.211637  7687 net.cpp:90] Creating Layer norm2_1
I1028 13:30:15.211642  7687 net.cpp:410] norm2_1 <- conv2_1
I1028 13:30:15.211649  7687 net.cpp:368] norm2_1 -> norm2_1
I1028 13:30:15.211657  7687 net.cpp:120] Setting up norm2_1
I1028 13:30:15.211663  7687 net.cpp:127] Top shape: 32 40 21 21 (564480)
I1028 13:30:15.211669  7687 layer_factory.hpp:74] Creating layer pool2_1
I1028 13:30:15.211679  7687 net.cpp:90] Creating Layer pool2_1
I1028 13:30:15.211685  7687 net.cpp:410] pool2_1 <- norm2_1
I1028 13:30:15.211691  7687 net.cpp:368] pool2_1 -> pool2_1
I1028 13:30:15.211699  7687 net.cpp:120] Setting up pool2_1
I1028 13:30:15.211706  7687 net.cpp:127] Top shape: 32 40 11 11 (154880)
I1028 13:30:15.211712  7687 layer_factory.hpp:74] Creating layer conv3_1
I1028 13:30:15.211720  7687 net.cpp:90] Creating Layer conv3_1
I1028 13:30:15.211725  7687 net.cpp:410] conv3_1 <- pool2_1
I1028 13:30:15.211733  7687 net.cpp:368] conv3_1 -> conv3_1
I1028 13:30:15.211741  7687 net.cpp:120] Setting up conv3_1
I1028 13:30:15.212182  7687 net.cpp:127] Top shape: 32 60 9 9 (155520)
I1028 13:30:15.212193  7687 layer_factory.hpp:74] Creating layer pool3_1
I1028 13:30:15.212199  7687 net.cpp:90] Creating Layer pool3_1
I1028 13:30:15.212205  7687 net.cpp:410] pool3_1 <- conv3_1
I1028 13:30:15.212213  7687 net.cpp:368] pool3_1 -> pool3_1
I1028 13:30:15.212219  7687 net.cpp:120] Setting up pool3_1
I1028 13:30:15.212227  7687 net.cpp:127] Top shape: 32 60 5 5 (48000)
I1028 13:30:15.212234  7687 layer_factory.hpp:74] Creating layer pool3_1_pool3_1_0_split
I1028 13:30:15.212241  7687 net.cpp:90] Creating Layer pool3_1_pool3_1_0_split
I1028 13:30:15.212247  7687 net.cpp:410] pool3_1_pool3_1_0_split <- pool3_1
I1028 13:30:15.212254  7687 net.cpp:368] pool3_1_pool3_1_0_split -> pool3_1_pool3_1_0_split_0
I1028 13:30:15.212261  7687 net.cpp:368] pool3_1_pool3_1_0_split -> pool3_1_pool3_1_0_split_1
I1028 13:30:15.212268  7687 net.cpp:120] Setting up pool3_1_pool3_1_0_split
I1028 13:30:15.212276  7687 net.cpp:127] Top shape: 32 60 5 5 (48000)
I1028 13:30:15.212282  7687 net.cpp:127] Top shape: 32 60 5 5 (48000)
I1028 13:30:15.212288  7687 layer_factory.hpp:74] Creating layer conv4_1
I1028 13:30:15.212296  7687 net.cpp:90] Creating Layer conv4_1
I1028 13:30:15.212301  7687 net.cpp:410] conv4_1 <- pool3_1_pool3_1_0_split_0
I1028 13:30:15.212308  7687 net.cpp:368] conv4_1 -> conv4_1
I1028 13:30:15.212316  7687 net.cpp:120] Setting up conv4_1
I1028 13:30:15.212718  7687 net.cpp:127] Top shape: 32 80 2 2 (10240)
I1028 13:30:15.212728  7687 layer_factory.hpp:74] Creating layer flatten_pool3_1
I1028 13:30:15.212735  7687 net.cpp:90] Creating Layer flatten_pool3_1
I1028 13:30:15.212741  7687 net.cpp:410] flatten_pool3_1 <- pool3_1_pool3_1_0_split_1
I1028 13:30:15.212749  7687 net.cpp:368] flatten_pool3_1 -> flatten_pool3_1
I1028 13:30:15.212756  7687 net.cpp:120] Setting up flatten_pool3_1
I1028 13:30:15.212764  7687 net.cpp:127] Top shape: 32 1500 (48000)
I1028 13:30:15.212769  7687 layer_factory.hpp:74] Creating layer flatten_conv4_1
I1028 13:30:15.212776  7687 net.cpp:90] Creating Layer flatten_conv4_1
I1028 13:30:15.212781  7687 net.cpp:410] flatten_conv4_1 <- conv4_1
I1028 13:30:15.212788  7687 net.cpp:368] flatten_conv4_1 -> flatten_conv4_1
I1028 13:30:15.212795  7687 net.cpp:120] Setting up flatten_conv4_1
I1028 13:30:15.212801  7687 net.cpp:127] Top shape: 32 320 (10240)
I1028 13:30:15.212806  7687 layer_factory.hpp:74] Creating layer contact_conv
I1028 13:30:15.212815  7687 net.cpp:90] Creating Layer contact_conv
I1028 13:30:15.212820  7687 net.cpp:410] contact_conv <- flatten_conv4_1
I1028 13:30:15.212826  7687 net.cpp:410] contact_conv <- flatten_pool3_1
I1028 13:30:15.212841  7687 net.cpp:368] contact_conv -> contact_conv
I1028 13:30:15.212848  7687 net.cpp:120] Setting up contact_conv
I1028 13:30:15.212857  7687 net.cpp:127] Top shape: 32 1820 (58240)
I1028 13:30:15.212863  7687 layer_factory.hpp:74] Creating layer deepid_1
I1028 13:30:15.212873  7687 net.cpp:90] Creating Layer deepid_1
I1028 13:30:15.212879  7687 net.cpp:410] deepid_1 <- contact_conv
I1028 13:30:15.212885  7687 net.cpp:368] deepid_1 -> deepid_1
I1028 13:30:15.212895  7687 net.cpp:120] Setting up deepid_1
I1028 13:30:15.218700  7687 net.cpp:127] Top shape: 32 160 (5120)
I1028 13:30:15.218713  7687 layer_factory.hpp:74] Creating layer relu6_1
I1028 13:30:15.218720  7687 net.cpp:90] Creating Layer relu6_1
I1028 13:30:15.218729  7687 net.cpp:410] relu6_1 <- deepid_1
I1028 13:30:15.218741  7687 net.cpp:357] relu6_1 -> deepid_1 (in-place)
I1028 13:30:15.218754  7687 net.cpp:120] Setting up relu6_1
I1028 13:30:15.218763  7687 net.cpp:127] Top shape: 32 160 (5120)
I1028 13:30:15.218773  7687 layer_factory.hpp:74] Creating layer drop6_1
I1028 13:30:15.218786  7687 net.cpp:90] Creating Layer drop6_1
I1028 13:30:15.218796  7687 net.cpp:410] drop6_1 <- deepid_1
I1028 13:30:15.218806  7687 net.cpp:357] drop6_1 -> deepid_1 (in-place)
I1028 13:30:15.218822  7687 net.cpp:120] Setting up drop6_1
I1028 13:30:15.218837  7687 net.cpp:127] Top shape: 32 160 (5120)
I1028 13:30:15.218848  7687 layer_factory.hpp:74] Creating layer fc8_1
I1028 13:30:15.218858  7687 net.cpp:90] Creating Layer fc8_1
I1028 13:30:15.218864  7687 net.cpp:410] fc8_1 <- deepid_1
I1028 13:30:15.218871  7687 net.cpp:368] fc8_1 -> fc8_1
I1028 13:30:15.218879  7687 net.cpp:120] Setting up fc8_1
I1028 13:30:15.253994  7687 net.cpp:127] Top shape: 32 10575 (338400)
I1028 13:30:15.254016  7687 layer_factory.hpp:74] Creating layer loss_1
I1028 13:30:15.254029  7687 net.cpp:90] Creating Layer loss_1
I1028 13:30:15.254036  7687 net.cpp:410] loss_1 <- fc8_1
I1028 13:30:15.254043  7687 net.cpp:410] loss_1 <- label_1
I1028 13:30:15.254051  7687 net.cpp:368] loss_1 -> loss_1
I1028 13:30:15.254061  7687 net.cpp:120] Setting up loss_1
I1028 13:30:15.254070  7687 layer_factory.hpp:74] Creating layer loss_1
…
I1028 13:30:15.255372  7687 net.cpp:287] The NetState phase (1) differed from the phase (0) specified by a rule in layer data_1
I1028 13:30:15.255481  7687 net.cpp:42] Initializing net from parameters: 
name: "face_train_test"
state {
  phase: TEST
}
layer {
  name: "data_1"
  type: "Data"
  top: "data_1"
  top: "label_1"
  include {
    phase: TEST
  }
  transform_param {
    mean_file: "/media/crw/MyBook/TrainData/LMDB/FaceRecognition/webface10575_48/mean.binaryproto"
  }
  data_param {
    source: "/media/crw/MyBook/TrainData/LMDB/FaceRecognition/webface10575_48/val"
    batch_size: 32
    backend: LMDB
  }
}
layer {
  name: "conv1_1"
  type: "Convolution"
  bottom: "data_1"
  top: "conv1_1"
  param {
    name: "conv1_w"
    lr_mult: 1
    decay_mult: 1
  }
  param {
    name: "conv1_b"
    lr_mult: 2
    decay_mult: 0
  }
  convolution_param {
    num_output: 20
    kernel_size: 4
    stride: 1
    weight_filler {
      type: "gaussian"
      std: 0.01
    }
    bias_filler {
      type: "constant"
      value: 0
    }
  }
}
layer {
  name: "relu1_1"
  type: "ReLU"
  bottom: "conv1_1"
  top: "conv1_1"
}
layer {
  name: "norm1_1"
  type: "LRN"
  bottom: "conv1_1"
  top: "norm1_1"
  lrn_param {
    local_size: 5
    alpha: 0.0001
    beta: 0.75
  }
}
layer {
  name: "pool1_1"
  type: "Pooling"
  bottom: "norm1_1"
  top: "pool1_1"
  pooling_param {
    pool: MAX
    kernel_size: 2
    stride: 2
  }
}
layer {
  name: "conv2_1"
  type: "Convolution"
  bottom: "pool1_1"
  top: "conv2_1"
  param {
    name: "conv2_w"
    lr_mult: 1
    decay_mult: 1
  }
  param {
    name: "conv2_b"
    lr_mult: 2
    decay_mult: 0
  }
  convolution_param {
    num_output: 40
    kernel_size: 3
    group: 2
    weight_filler {
      type: "gaussian"
      std: 0.01
    }
    bias_filler {
      type: "constant"
      value: 0.1
    }
  }
}
layer {
  name: "relu2_1"
  type: "ReLU"
  bottom: "conv2_1"
  top: "conv2_1"
}
layer {
  name: "norm2_1"
  type: "LRN"
  bottom: "conv2_1"
  top: "norm2_1"
  lrn_param {
    local_size: 5
    alpha: 0.0001
    beta: 0.75
  }
}
layer {
  name: "pool2_1"
  type: "Pooling"
  bottom: "norm2_1"
  top: "pool2_1"
  pooling_param {
    pool: MAX
    kernel_size: 2
    stride: 2
  }
}
layer {
  name: "conv3_1"
  type: "Convolution"
  bottom: "pool2_1"
  top: "conv3_1"
  param {
    name: "conv3_w"
    lr_mult: 1
    decay_mult: 1
  }
  param {
    name: "conv3_b"
    lr_mult: 2
    decay_mult: 0
  }
  convolution_param {
    num_output: 60
    kernel_size: 3
    weight_filler {
      type: "gaussian"
      std: 0.01
    }
    bias_filler {
      type: "constant"
      value: 0
    }
  }
}
layer {
  name: "pool3_1"
  type: "Pooling"
  bottom: "conv3_1"
  top: "pool3_1"
  pooling_param {
    pool: MAX
    kernel_size: 2
    stride: 2
  }
}
layer {
  name: "conv4_1"
  type: "Convolution"
  bottom: "pool3_1"
  top: "conv4_1"
  param {
    name: "conv4_w"
    lr_mult: 1
    decay_mult: 1
  }
  param {
    name: "conv4_b"
    lr_mult: 2
    decay_mult: 0
  }
  convolution_param {
    num_output: 80
    kernel_size: 2
    stride: 2
    weight_filler {
      type: "gaussian"
      std: 0.01
    }
    bias_filler {
      type: "constant"
      value: 0.1
    }
  }
}
layer {
  name: "flatten_pool3_1"
  type: "Flatten"
  bottom: "pool3_1"
  top: "flatten_pool3_1"
}
layer {
  name: "flatten_conv4_1"
  type: "Flatten"
  bottom: "conv4_1"
  top: "flatten_conv4_1"
}
layer {
  name: "contact_conv"
  type: "Concat"
  bottom: "flatten_conv4_1"
  bottom: "flatten_pool3_1"
  top: "contact_conv"
}
layer {
  name: "deepid_1"
  type: "InnerProduct"
  bottom: "contact_conv"
  top: "deepid_1"
  param {
    name: "fc6_w"
    lr_mult: 1
    decay_mult: 1
  }
  param {
    name: "fc6_b"
    lr_mult: 2
    decay_mult: 0
  }
  inner_product_param {
    num_output: 160
    weight_filler {
      type: "gaussian"
      std: 0.005
    }
    bias_filler {
      type: "constant"
      value: 0.1
    }
  }
}
layer {
  name: "relu6_1"
  type: "ReLU"
  bottom: "deepid_1"
  top: "deepid_1"
}
layer {
  name: "drop6_1"
  type: "Dropout"
  bottom: "deepid_1"
  top: "deepid_1"
  dropout_param {
    dropout_ratio: 0.5
  }
}
layer {
  name: "fc8_1"
  type: "InnerProduct"
  bottom: "deepid_1"
  top: "fc8_1"
  param {
    name: "fc8_w"
    lr_mult: 1
    decay_mult: 1
  }
  param {
    name: "fc8_b"
    lr_mult: 2
    decay_mult: 0
  }
  inner_product_param {
    num_output: 10575
    weight_filler {
      type: "gaussian"
      std: 0.01
    }
    bias_filler {
      type: "constant"
      value: 0
    }
  }
}
layer {
  name: "accuracy_1"
  type: "Accuracy"
  bottom: "fc8_1"
  bottom: "label_1"
  top: "accuracy_1"
  include {
    phase: TEST
  }
}
layer {
  name: "loss_1"
  type: "SoftmaxWithLoss"
  bottom: "fc8_1"
  bottom: "label_1"
  top: "loss_1"
}
I1028 13:30:15.256149  7687 layer_factory.hpp:74] Creating layer data_1
I1028 13:30:15.256160  7687 net.cpp:90] Creating Layer data_1
I1028 13:30:15.256167  7687 net.cpp:368] data_1 -> data_1
I1028 13:30:15.256176  7687 net.cpp:368] data_1 -> label_1
I1028 13:30:15.256184  7687 net.cpp:120] Setting up data_1
I1028 13:30:15.320873  7687 db.cpp:34] Opened lmdb /media/crw/MyBook/TrainData/LMDB/FaceRecognition/webface10575_48/val
I1028 13:30:15.341055  7687 data_layer.cpp:67] output data size: 32,3,48,48
I1028 13:30:15.341073  7687 data_transformer.cpp:22] Loading mean file from: /media/crw/MyBook/TrainData/LMDB/FaceRecognition/webface10575_48/mean.binaryproto
I1028 13:30:15.344982  7687 net.cpp:127] Top shape: 32 3 48 48 (221184)
I1028 13:30:15.344992  7687 net.cpp:127] Top shape: 32 (32)
I1028 13:30:15.344997  7687 layer_factory.hpp:74] Creating layer label_1_data_1_1_split
I1028 13:30:15.345006  7687 net.cpp:90] Creating Layer label_1_data_1_1_split
I1028 13:30:15.345031  7687 net.cpp:410] label_1_data_1_1_split <- label_1
I1028 13:30:15.345038  7687 net.cpp:368] label_1_data_1_1_split -> label_1_data_1_1_split_0
I1028 13:30:15.345046  7687 net.cpp:368] label_1_data_1_1_split -> label_1_data_1_1_split_1
I1028 13:30:15.345052  7687 net.cpp:120] Setting up label_1_data_1_1_split
I1028 13:30:15.345059  7687 net.cpp:127] Top shape: 32 (32)
I1028 13:30:15.345063  7687 net.cpp:127] Top shape: 32 (32)
I1028 13:30:15.345067  7687 layer_factory.hpp:74] Creating layer conv1_1
I1028 13:30:15.345074  7687 net.cpp:90] Creating Layer conv1_1
I1028 13:30:15.345078  7687 net.cpp:410] conv1_1 <- data_1
I1028 13:30:15.345084  7687 net.cpp:368] conv1_1 -> conv1_1
I1028 13:30:15.345090  7687 net.cpp:120] Setting up conv1_1
I1028 13:30:15.345129  7687 net.cpp:127] Top shape: 32 20 45 45 (1296000)
I1028 13:30:15.345134  7687 layer_factory.hpp:74] Creating layer relu1_1
I1028 13:30:15.345139  7687 net.cpp:90] Creating Layer relu1_1
I1028 13:30:15.345142  7687 net.cpp:410] relu1_1 <- conv1_1
I1028 13:30:15.345147  7687 net.cpp:357] relu1_1 -> conv1_1 (in-place)
I1028 13:30:15.345151  7687 net.cpp:120] Setting up relu1_1
I1028 13:30:15.345155  7687 net.cpp:127] Top shape: 32 20 45 45 (1296000)
I1028 13:30:15.345158  7687 layer_factory.hpp:74] Creating layer norm1_1
I1028 13:30:15.345163  7687 net.cpp:90] Creating Layer norm1_1
I1028 13:30:15.345166  7687 net.cpp:410] norm1_1 <- conv1_1
I1028 13:30:15.345171  7687 net.cpp:368] norm1_1 -> norm1_1
I1028 13:30:15.345176  7687 net.cpp:120] Setting up norm1_1
I1028 13:30:15.345180  7687 net.cpp:127] Top shape: 32 20 45 45 (1296000)
I1028 13:30:15.345183  7687 layer_factory.hpp:74] Creating layer pool1_1
I1028 13:30:15.345188  7687 net.cpp:90] Creating Layer pool1_1
I1028 13:30:15.345191  7687 net.cpp:410] pool1_1 <- norm1_1
I1028 13:30:15.345197  7687 net.cpp:368] pool1_1 -> pool1_1
I1028 13:30:15.345201  7687 net.cpp:120] Setting up pool1_1
I1028 13:30:15.345207  7687 net.cpp:127] Top shape: 32 20 23 23 (338560)
I1028 13:30:15.345211  7687 layer_factory.hpp:74] Creating layer conv2_1
I1028 13:30:15.345229  7687 net.cpp:90] Creating Layer conv2_1
I1028 13:30:15.345232  7687 net.cpp:410] conv2_1 <- pool1_1
I1028 13:30:15.345238  7687 net.cpp:368] conv2_1 -> conv2_1
I1028 13:30:15.345244  7687 net.cpp:120] Setting up conv2_1
I1028 13:30:15.345327  7687 net.cpp:127] Top shape: 32 40 21 21 (564480)
I1028 13:30:15.345332  7687 layer_factory.hpp:74] Creating layer relu2_1
I1028 13:30:15.345337  7687 net.cpp:90] Creating Layer relu2_1
I1028 13:30:15.345340  7687 net.cpp:410] relu2_1 <- conv2_1
I1028 13:30:15.345347  7687 net.cpp:357] relu2_1 -> conv2_1 (in-place)
I1028 13:30:15.345351  7687 net.cpp:120] Setting up relu2_1
I1028 13:30:15.345355  7687 net.cpp:127] Top shape: 32 40 21 21 (564480)
I1028 13:30:15.345358  7687 layer_factory.hpp:74] Creating layer norm2_1
I1028 13:30:15.345365  7687 net.cpp:90] Creating Layer norm2_1
I1028 13:30:15.345367  7687 net.cpp:410] norm2_1 <- conv2_1
I1028 13:30:15.345371  7687 net.cpp:368] norm2_1 -> norm2_1
I1028 13:30:15.345376  7687 net.cpp:120] Setting up norm2_1
I1028 13:30:15.345381  7687 net.cpp:127] Top shape: 32 40 21 21 (564480)
I1028 13:30:15.345384  7687 layer_factory.hpp:74] Creating layer pool2_1
I1028 13:30:15.345388  7687 net.cpp:90] Creating Layer pool2_1
I1028 13:30:15.345391  7687 net.cpp:410] pool2_1 <- norm2_1
I1028 13:30:15.345396  7687 net.cpp:368] pool2_1 -> pool2_1
I1028 13:30:15.345399  7687 net.cpp:120] Setting up pool2_1
I1028 13:30:15.345403  7687 net.cpp:127] Top shape: 32 40 11 11 (154880)
I1028 13:30:15.345407  7687 layer_factory.hpp:74] Creating layer conv3_1
I1028 13:30:15.345414  7687 net.cpp:90] Creating Layer conv3_1
I1028 13:30:15.345417  7687 net.cpp:410] conv3_1 <- pool2_1
I1028 13:30:15.345422  7687 net.cpp:368] conv3_1 -> conv3_1
I1028 13:30:15.345427  7687 net.cpp:120] Setting up conv3_1
I1028 13:30:15.345878  7687 net.cpp:127] Top shape: 32 60 9 9 (155520)
I1028 13:30:15.345885  7687 layer_factory.hpp:74] Creating layer pool3_1
I1028 13:30:15.345890  7687 net.cpp:90] Creating Layer pool3_1
I1028 13:30:15.345893  7687 net.cpp:410] pool3_1 <- conv3_1
I1028 13:30:15.345898  7687 net.cpp:368] pool3_1 -> pool3_1
I1028 13:30:15.345902  7687 net.cpp:120] Setting up pool3_1
I1028 13:30:15.345907  7687 net.cpp:127] Top shape: 32 60 5 5 (48000)
I1028 13:30:15.345911  7687 layer_factory.hpp:74] Creating layer pool3_1_pool3_1_0_split
I1028 13:30:15.345916  7687 net.cpp:90] Creating Layer pool3_1_pool3_1_0_split
I1028 13:30:15.345918  7687 net.cpp:410] pool3_1_pool3_1_0_split <- pool3_1
I1028 13:30:15.345921  7687 net.cpp:368] pool3_1_pool3_1_0_split -> pool3_1_pool3_1_0_split_0
I1028 13:30:15.345927  7687 net.cpp:368] pool3_1_pool3_1_0_split -> pool3_1_pool3_1_0_split_1
I1028 13:30:15.345931  7687 net.cpp:120] Setting up pool3_1_pool3_1_0_split
I1028 13:30:15.345934  7687 net.cpp:127] Top shape: 32 60 5 5 (48000)
I1028 13:30:15.345940  7687 net.cpp:127] Top shape: 32 60 5 5 (48000)
I1028 13:30:15.345943  7687 layer_factory.hpp:74] Creating layer conv4_1
I1028 13:30:15.345950  7687 net.cpp:90] Creating Layer conv4_1
I1028 13:30:15.345953  7687 net.cpp:410] conv4_1 <- pool3_1_pool3_1_0_split_0
I1028 13:30:15.345958  7687 net.cpp:368] conv4_1 -> conv4_1
I1028 13:30:15.345964  7687 net.cpp:120] Setting up conv4_1
I1028 13:30:15.346364  7687 net.cpp:127] Top shape: 32 80 2 2 (10240)
I1028 13:30:15.346370  7687 layer_factory.hpp:74] Creating layer flatten_pool3_1
I1028 13:30:15.346374  7687 net.cpp:90] Creating Layer flatten_pool3_1
I1028 13:30:15.346377  7687 net.cpp:410] flatten_pool3_1 <- pool3_1_pool3_1_0_split_1
I1028 13:30:15.346382  7687 net.cpp:368] flatten_pool3_1 -> flatten_pool3_1
I1028 13:30:15.346386  7687 net.cpp:120] Setting up flatten_pool3_1
I1028 13:30:15.346391  7687 net.cpp:127] Top shape: 32 1500 (48000)
I1028 13:30:15.346395  7687 layer_factory.hpp:74] Creating layer flatten_conv4_1
I1028 13:30:15.346398  7687 net.cpp:90] Creating Layer flatten_conv4_1
I1028 13:30:15.346400  7687 net.cpp:410] flatten_conv4_1 <- conv4_1
I1028 13:30:15.346405  7687 net.cpp:368] flatten_conv4_1 -> flatten_conv4_1
I1028 13:30:15.346416  7687 net.cpp:120] Setting up flatten_conv4_1
I1028 13:30:15.346421  7687 net.cpp:127] Top shape: 32 320 (10240)
I1028 13:30:15.346424  7687 layer_factory.hpp:74] Creating layer contact_conv
I1028 13:30:15.346431  7687 net.cpp:90] Creating Layer contact_conv
I1028 13:30:15.346433  7687 net.cpp:410] contact_conv <- flatten_conv4_1
I1028 13:30:15.346437  7687 net.cpp:410] contact_conv <- flatten_pool3_1
I1028 13:30:15.346441  7687 net.cpp:368] contact_conv -> contact_conv
I1028 13:30:15.346446  7687 net.cpp:120] Setting up contact_conv
I1028 13:30:15.346449  7687 net.cpp:127] Top shape: 32 1820 (58240)
I1028 13:30:15.346452  7687 layer_factory.hpp:74] Creating layer deepid_1
I1028 13:30:15.346458  7687 net.cpp:90] Creating Layer deepid_1
I1028 13:30:15.346462  7687 net.cpp:410] deepid_1 <- contact_conv
I1028 13:30:15.346467  7687 net.cpp:368] deepid_1 -> deepid_1
I1028 13:30:15.346472  7687 net.cpp:120] Setting up deepid_1
I1028 13:30:15.352279  7687 net.cpp:127] Top shape: 32 160 (5120)
I1028 13:30:15.352288  7687 layer_factory.hpp:74] Creating layer relu6_1
I1028 13:30:15.352293  7687 net.cpp:90] Creating Layer relu6_1
I1028 13:30:15.352296  7687 net.cpp:410] relu6_1 <- deepid_1
I1028 13:30:15.352300  7687 net.cpp:357] relu6_1 -> deepid_1 (in-place)
I1028 13:30:15.352304  7687 net.cpp:120] Setting up relu6_1
I1028 13:30:15.352308  7687 net.cpp:127] Top shape: 32 160 (5120)
I1028 13:30:15.352311  7687 layer_factory.hpp:74] Creating layer drop6_1
I1028 13:30:15.352316  7687 net.cpp:90] Creating Layer drop6_1
I1028 13:30:15.352319  7687 net.cpp:410] drop6_1 <- deepid_1
I1028 13:30:15.352324  7687 net.cpp:357] drop6_1 -> deepid_1 (in-place)
I1028 13:30:15.352327  7687 net.cpp:120] Setting up drop6_1
I1028 13:30:15.352331  7687 net.cpp:127] Top shape: 32 160 (5120)
I1028 13:30:15.352335  7687 layer_factory.hpp:74] Creating layer fc8_1
I1028 13:30:15.352339  7687 net.cpp:90] Creating Layer fc8_1
I1028 13:30:15.352342  7687 net.cpp:410] fc8_1 <- deepid_1
I1028 13:30:15.352347  7687 net.cpp:368] fc8_1 -> fc8_1
I1028 13:30:15.352352  7687 net.cpp:120] Setting up fc8_1
I1028 13:30:15.387037  7687 net.cpp:127] Top shape: 32 10575 (338400)
I1028 13:30:15.387063  7687 layer_factory.hpp:74] Creating layer fc8_1_fc8_1_0_split
I1028 13:30:15.387073  7687 net.cpp:90] Creating Layer fc8_1_fc8_1_0_split
I1028 13:30:15.387080  7687 net.cpp:410] fc8_1_fc8_1_0_split <- fc8_1
I1028 13:30:15.387090  7687 net.cpp:368] fc8_1_fc8_1_0_split -> fc8_1_fc8_1_0_split_0
I1028 13:30:15.387106  7687 net.cpp:368] fc8_1_fc8_1_0_split -> fc8_1_fc8_1_0_split_1
I1028 13:30:15.387121  7687 net.cpp:120] Setting up fc8_1_fc8_1_0_split
I1028 13:30:15.387135  7687 net.cpp:127] Top shape: 32 10575 (338400)
I1028 13:30:15.387148  7687 net.cpp:127] Top shape: 32 10575 (338400)
I1028 13:30:15.387158  7687 layer_factory.hpp:74] Creating layer accuracy_1
I1028 13:30:15.387171  7687 net.cpp:90] Creating Layer accuracy_1
I1028 13:30:15.387177  7687 net.cpp:410] accuracy_1 <- fc8_1_fc8_1_0_split_0
I1028 13:30:15.387184  7687 net.cpp:410] accuracy_1 <- label_1_data_1_1_split_0
I1028 13:30:15.387193  7687 net.cpp:368] accuracy_1 -> accuracy_1
I1028 13:30:15.387202  7687 net.cpp:120] Setting up accuracy_1
…
