…
I1031 22:18:27.678760  9527 net.cpp:287] The NetState phase (0) differed from the phase (1) specified by a rule in layer accuracy_1
I1031 22:18:27.678875  9527 net.cpp:42] Initializing net from parameters: 
name: "face_train_val"
state {
  phase: TRAIN
}
layer {
  name: "data_1"
  type: "Data"
  top: "data_1"
  top: "label_1"
  include {
    phase: TRAIN
  }
  transform_param {
    mirror: true
    mean_file: "/media/crw/MyBook/TrainData/LMDB/CASIA-WebFace/10575_64X64/mean.binaryproto"
  }
  data_param {
    source: "/media/crw/MyBook/TrainData/LMDB/CASIA-WebFace/10575_64X64/train"
    batch_size: 128
    backend: LMDB
  }
}
layer {
  name: "conv1_1"
  type: "Convolution"
  bottom: "data_1"
  top: "conv1_1"
  param {
    name: "conv1_w"
    lr_mult: 1
    decay_mult: 1
  }
  param {
    name: "conv1_b"
    lr_mult: 2
    decay_mult: 0
  }
  convolution_param {
    num_output: 20
    kernel_size: 4
    stride: 1
    weight_filler {
      type: "gaussian"
      std: 0.01
    }
    bias_filler {
      type: "constant"
      value: 0
    }
  }
}
layer {
  name: "relu1_1"
  type: "ReLU"
  bottom: "conv1_1"
  top: "conv1_1"
}
layer {
  name: "norm1_1"
  type: "LRN"
  bottom: "conv1_1"
  top: "norm1_1"
  lrn_param {
    local_size: 5
    alpha: 0.0001
    beta: 0.75
  }
}
layer {
  name: "pool1_1"
  type: "Pooling"
  bottom: "norm1_1"
  top: "pool1_1"
  pooling_param {
    pool: MAX
    kernel_size: 2
    stride: 2
  }
}
layer {
  name: "conv2_1"
  type: "Convolution"
  bottom: "pool1_1"
  top: "conv2_1"
  param {
    name: "conv2_w"
    lr_mult: 1
    decay_mult: 1
  }
  param {
    name: "conv2_b"
    lr_mult: 2
    decay_mult: 0
  }
  convolution_param {
    num_output: 40
    kernel_size: 3
    group: 2
    weight_filler {
      type: "gaussian"
      std: 0.01
    }
    bias_filler {
      type: "constant"
      value: 0.1
    }
  }
}
layer {
  name: "relu2_1"
  type: "ReLU"
  bottom: "conv2_1"
  top: "conv2_1"
}
layer {
  name: "norm2_1"
  type: "LRN"
  bottom: "conv2_1"
  top: "norm2_1"
  lrn_param {
    local_size: 5
    alpha: 0.0001
    beta: 0.75
  }
}
layer {
  name: "pool2_1"
  type: "Pooling"
  bottom: "norm2_1"
  top: "pool2_1"
  pooling_param {
    pool: MAX
    kernel_size: 2
    stride: 2
  }
}
layer {
  name: "conv3_1"
  type: "Convolution"
  bottom: "pool2_1"
  top: "conv3_1"
  param {
    name: "conv3_w"
    lr_mult: 1
    decay_mult: 1
  }
  param {
    name: "conv3_b"
    lr_mult: 2
    decay_mult: 0
  }
  convolution_param {
    num_output: 60
    kernel_size: 3
    weight_filler {
      type: "gaussian"
      std: 0.01
    }
    bias_filler {
      type: "constant"
      value: 0
    }
  }
}
layer {
  name: "pool3_1"
  type: "Pooling"
  bottom: "conv3_1"
  top: "pool3_1"
  pooling_param {
    pool: MAX
    kernel_size: 2
    stride: 2
  }
}
layer {
  name: "conv4_1"
  type: "Convolution"
  bottom: "pool3_1"
  top: "conv4_1"
  param {
    name: "conv4_w"
    lr_mult: 1
    decay_mult: 1
  }
  param {
    name: "conv4_b"
    lr_mult: 2
    decay_mult: 0
  }
  convolution_param {
    num_output: 80
    kernel_size: 2
    stride: 2
    weight_filler {
      type: "gaussian"
      std: 0.01
    }
    bias_filler {
      type: "constant"
      value: 0.1
    }
  }
}
layer {
  name: "flatten_pool3_1"
  type: "Flatten"
  bottom: "pool3_1"
  top: "flatten_pool3_1"
}
layer {
  name: "flatten_conv4_1"
  type: "Flatten"
  bottom: "conv4_1"
  top: "flatten_conv4_1"
}
layer {
  name: "contact_conv"
  type: "Concat"
  bottom: "flatten_conv4_1"
  bottom: "flatten_pool3_1"
  top: "contact_conv"
}
layer {
  name: "deepid_1"
  type: "InnerProduct"
  bottom: "contact_conv"
  top: "deepid_1"
  param {
    name: "fc6_w"
    lr_mult: 1
    decay_mult: 1
  }
  param {
    name: "fc6_b"
    lr_mult: 2
    decay_mult: 0
  }
  inner_product_param {
    num_output: 160
    weight_filler {
      type: "gaussian"
      std: 0.005
    }
    bias_filler {
      type: "constant"
      value: 0.1
    }
  }
}
layer {
  name: "relu6_1"
  type: "ReLU"
  bottom: "deepid_1"
  top: "deepid_1"
}
layer {
  name: "drop6_1"
  type: "Dropout"
  bottom: "deepid_1"
  top: "deepid_1"
  dropout_param {
    dropout_ratio: 0.5
  }
}
layer {
  name: "fc8_1"
  type: "InnerProduct"
  bottom: "deepid_1"
  top: "fc8_1"
  param {
    name: "fc8_w"
    lr_mult: 1
    decay_mult: 1
  }
  param {
    name: "fc8_b"
    lr_mult: 2
    decay_mult: 0
  }
  inner_product_param {
    num_output: 10575
    weight_filler {
      type: "gaussian"
      std: 0.01
    }
    bias_filler {
      type: "constant"
      value: 0
    }
  }
}
layer {
  name: "loss_1"
  type: "SoftmaxWithLoss"
  bottom: "fc8_1"
  bottom: "label_1"
  top: "loss_1"
}
I1031 22:18:27.679600  9527 layer_factory.hpp:74] Creating layer data_1
I1031 22:18:27.679620  9527 net.cpp:90] Creating Layer data_1
I1031 22:18:27.679630  9527 net.cpp:368] data_1 -> data_1
I1031 22:18:27.679653  9527 net.cpp:368] data_1 -> label_1
I1031 22:18:27.679666  9527 net.cpp:120] Setting up data_1
I1031 22:18:27.679891  9527 db.cpp:34] Opened lmdb /media/crw/MyBook/TrainData/LMDB/CASIA-WebFace/10575_64X64/train
I1031 22:18:27.679942  9527 data_layer.cpp:67] output data size: 128,3,64,64
I1031 22:18:27.679955  9527 data_transformer.cpp:22] Loading mean file from: /media/crw/MyBook/TrainData/LMDB/CASIA-WebFace/10575_64X64/mean.binaryproto
I1031 22:18:27.681239  9527 net.cpp:127] Top shape: 128 3 64 64 (1572864)
I1031 22:18:27.681259  9527 net.cpp:127] Top shape: 128 (128)
I1031 22:18:27.681267  9527 layer_factory.hpp:74] Creating layer conv1_1
I1031 22:18:27.681282  9527 net.cpp:90] Creating Layer conv1_1
I1031 22:18:27.681293  9527 net.cpp:410] conv1_1 <- data_1
I1031 22:18:27.681309  9527 net.cpp:368] conv1_1 -> conv1_1
I1031 22:18:27.681323  9527 net.cpp:120] Setting up conv1_1
I1031 22:18:27.681381  9527 net.cpp:127] Top shape: 128 20 61 61 (9525760)
I1031 22:18:27.681393  9527 layer_factory.hpp:74] Creating layer relu1_1
I1031 22:18:27.681403  9527 net.cpp:90] Creating Layer relu1_1
I1031 22:18:27.681409  9527 net.cpp:410] relu1_1 <- conv1_1
I1031 22:18:27.681416  9527 net.cpp:357] relu1_1 -> conv1_1 (in-place)
I1031 22:18:27.681423  9527 net.cpp:120] Setting up relu1_1
I1031 22:18:27.681432  9527 net.cpp:127] Top shape: 128 20 61 61 (9525760)
I1031 22:18:27.681437  9527 layer_factory.hpp:74] Creating layer norm1_1
I1031 22:18:27.681447  9527 net.cpp:90] Creating Layer norm1_1
I1031 22:18:27.681452  9527 net.cpp:410] norm1_1 <- conv1_1
I1031 22:18:27.681459  9527 net.cpp:368] norm1_1 -> norm1_1
I1031 22:18:27.681468  9527 net.cpp:120] Setting up norm1_1
I1031 22:18:27.681478  9527 net.cpp:127] Top shape: 128 20 61 61 (9525760)
I1031 22:18:27.681484  9527 layer_factory.hpp:74] Creating layer pool1_1
I1031 22:18:27.681493  9527 net.cpp:90] Creating Layer pool1_1
I1031 22:18:27.681498  9527 net.cpp:410] pool1_1 <- norm1_1
I1031 22:18:27.681504  9527 net.cpp:368] pool1_1 -> pool1_1
I1031 22:18:27.681514  9527 net.cpp:120] Setting up pool1_1
I1031 22:18:27.681541  9527 net.cpp:127] Top shape: 128 20 31 31 (2460160)
I1031 22:18:27.681550  9527 layer_factory.hpp:74] Creating layer conv2_1
I1031 22:18:27.681557  9527 net.cpp:90] Creating Layer conv2_1
I1031 22:18:27.681563  9527 net.cpp:410] conv2_1 <- pool1_1
I1031 22:18:27.681571  9527 net.cpp:368] conv2_1 -> conv2_1
I1031 22:18:27.681578  9527 net.cpp:120] Setting up conv2_1
I1031 22:18:27.681664  9527 net.cpp:127] Top shape: 128 40 29 29 (4305920)
I1031 22:18:27.681674  9527 layer_factory.hpp:74] Creating layer relu2_1
I1031 22:18:27.681695  9527 net.cpp:90] Creating Layer relu2_1
I1031 22:18:27.681702  9527 net.cpp:410] relu2_1 <- conv2_1
I1031 22:18:27.681709  9527 net.cpp:357] relu2_1 -> conv2_1 (in-place)
I1031 22:18:27.681715  9527 net.cpp:120] Setting up relu2_1
I1031 22:18:27.681722  9527 net.cpp:127] Top shape: 128 40 29 29 (4305920)
I1031 22:18:27.681728  9527 layer_factory.hpp:74] Creating layer norm2_1
I1031 22:18:27.681735  9527 net.cpp:90] Creating Layer norm2_1
I1031 22:18:27.681741  9527 net.cpp:410] norm2_1 <- conv2_1
I1031 22:18:27.681747  9527 net.cpp:368] norm2_1 -> norm2_1
I1031 22:18:27.681754  9527 net.cpp:120] Setting up norm2_1
I1031 22:18:27.681762  9527 net.cpp:127] Top shape: 128 40 29 29 (4305920)
I1031 22:18:27.681768  9527 layer_factory.hpp:74] Creating layer pool2_1
I1031 22:18:27.681776  9527 net.cpp:90] Creating Layer pool2_1
I1031 22:18:27.681782  9527 net.cpp:410] pool2_1 <- norm2_1
I1031 22:18:27.681788  9527 net.cpp:368] pool2_1 -> pool2_1
I1031 22:18:27.681795  9527 net.cpp:120] Setting up pool2_1
I1031 22:18:27.681802  9527 net.cpp:127] Top shape: 128 40 15 15 (1152000)
I1031 22:18:27.681808  9527 layer_factory.hpp:74] Creating layer conv3_1
I1031 22:18:27.681816  9527 net.cpp:90] Creating Layer conv3_1
I1031 22:18:27.681821  9527 net.cpp:410] conv3_1 <- pool2_1
I1031 22:18:27.681830  9527 net.cpp:368] conv3_1 -> conv3_1
I1031 22:18:27.681839  9527 net.cpp:120] Setting up conv3_1
I1031 22:18:27.682287  9527 net.cpp:127] Top shape: 128 60 13 13 (1297920)
I1031 22:18:27.682297  9527 layer_factory.hpp:74] Creating layer pool3_1
I1031 22:18:27.682306  9527 net.cpp:90] Creating Layer pool3_1
I1031 22:18:27.682312  9527 net.cpp:410] pool3_1 <- conv3_1
I1031 22:18:27.682318  9527 net.cpp:368] pool3_1 -> pool3_1
I1031 22:18:27.682327  9527 net.cpp:120] Setting up pool3_1
I1031 22:18:27.682337  9527 net.cpp:127] Top shape: 128 60 7 7 (376320)
I1031 22:18:27.682343  9527 layer_factory.hpp:74] Creating layer pool3_1_pool3_1_0_split
I1031 22:18:27.682351  9527 net.cpp:90] Creating Layer pool3_1_pool3_1_0_split
I1031 22:18:27.682358  9527 net.cpp:410] pool3_1_pool3_1_0_split <- pool3_1
I1031 22:18:27.682363  9527 net.cpp:368] pool3_1_pool3_1_0_split -> pool3_1_pool3_1_0_split_0
I1031 22:18:27.682371  9527 net.cpp:368] pool3_1_pool3_1_0_split -> pool3_1_pool3_1_0_split_1
I1031 22:18:27.682379  9527 net.cpp:120] Setting up pool3_1_pool3_1_0_split
I1031 22:18:27.682386  9527 net.cpp:127] Top shape: 128 60 7 7 (376320)
I1031 22:18:27.682394  9527 net.cpp:127] Top shape: 128 60 7 7 (376320)
I1031 22:18:27.682399  9527 layer_factory.hpp:74] Creating layer conv4_1
I1031 22:18:27.682409  9527 net.cpp:90] Creating Layer conv4_1
I1031 22:18:27.682415  9527 net.cpp:410] conv4_1 <- pool3_1_pool3_1_0_split_0
I1031 22:18:27.682422  9527 net.cpp:368] conv4_1 -> conv4_1
I1031 22:18:27.682430  9527 net.cpp:120] Setting up conv4_1
I1031 22:18:27.682823  9527 net.cpp:127] Top shape: 128 80 3 3 (92160)
I1031 22:18:27.682832  9527 layer_factory.hpp:74] Creating layer flatten_pool3_1
I1031 22:18:27.682842  9527 net.cpp:90] Creating Layer flatten_pool3_1
I1031 22:18:27.682847  9527 net.cpp:410] flatten_pool3_1 <- pool3_1_pool3_1_0_split_1
I1031 22:18:27.682862  9527 net.cpp:368] flatten_pool3_1 -> flatten_pool3_1
I1031 22:18:27.682873  9527 net.cpp:120] Setting up flatten_pool3_1
I1031 22:18:27.682881  9527 net.cpp:127] Top shape: 128 2940 (376320)
I1031 22:18:27.682888  9527 layer_factory.hpp:74] Creating layer flatten_conv4_1
I1031 22:18:27.682894  9527 net.cpp:90] Creating Layer flatten_conv4_1
I1031 22:18:27.682899  9527 net.cpp:410] flatten_conv4_1 <- conv4_1
I1031 22:18:27.682907  9527 net.cpp:368] flatten_conv4_1 -> flatten_conv4_1
I1031 22:18:27.682914  9527 net.cpp:120] Setting up flatten_conv4_1
I1031 22:18:27.682921  9527 net.cpp:127] Top shape: 128 720 (92160)
I1031 22:18:27.682927  9527 layer_factory.hpp:74] Creating layer contact_conv
I1031 22:18:27.682935  9527 net.cpp:90] Creating Layer contact_conv
I1031 22:18:27.682941  9527 net.cpp:410] contact_conv <- flatten_conv4_1
I1031 22:18:27.682947  9527 net.cpp:410] contact_conv <- flatten_pool3_1
I1031 22:18:27.682962  9527 net.cpp:368] contact_conv -> contact_conv
I1031 22:18:27.682971  9527 net.cpp:120] Setting up contact_conv
I1031 22:18:27.682981  9527 net.cpp:127] Top shape: 128 3660 (468480)
I1031 22:18:27.682986  9527 layer_factory.hpp:74] Creating layer deepid_1
I1031 22:18:27.682996  9527 net.cpp:90] Creating Layer deepid_1
I1031 22:18:27.683001  9527 net.cpp:410] deepid_1 <- contact_conv
I1031 22:18:27.683010  9527 net.cpp:368] deepid_1 -> deepid_1
I1031 22:18:27.683020  9527 net.cpp:120] Setting up deepid_1
I1031 22:18:27.694468  9527 net.cpp:127] Top shape: 128 160 (20480)
I1031 22:18:27.694489  9527 layer_factory.hpp:74] Creating layer relu6_1
I1031 22:18:27.694500  9527 net.cpp:90] Creating Layer relu6_1
I1031 22:18:27.694507  9527 net.cpp:410] relu6_1 <- deepid_1
I1031 22:18:27.694516  9527 net.cpp:357] relu6_1 -> deepid_1 (in-place)
I1031 22:18:27.694525  9527 net.cpp:120] Setting up relu6_1
I1031 22:18:27.694532  9527 net.cpp:127] Top shape: 128 160 (20480)
I1031 22:18:27.694538  9527 layer_factory.hpp:74] Creating layer drop6_1
I1031 22:18:27.694548  9527 net.cpp:90] Creating Layer drop6_1
I1031 22:18:27.694555  9527 net.cpp:410] drop6_1 <- deepid_1
I1031 22:18:27.694562  9527 net.cpp:357] drop6_1 -> deepid_1 (in-place)
I1031 22:18:27.694571  9527 net.cpp:120] Setting up drop6_1
I1031 22:18:27.694581  9527 net.cpp:127] Top shape: 128 160 (20480)
I1031 22:18:27.694587  9527 layer_factory.hpp:74] Creating layer fc8_1
I1031 22:18:27.694597  9527 net.cpp:90] Creating Layer fc8_1
I1031 22:18:27.694602  9527 net.cpp:410] fc8_1 <- deepid_1
I1031 22:18:27.694609  9527 net.cpp:368] fc8_1 -> fc8_1
I1031 22:18:27.694617  9527 net.cpp:120] Setting up fc8_1
I1031 22:18:27.727802  9527 net.cpp:127] Top shape: 128 10575 (1353600)
I1031 22:18:27.727824  9527 layer_factory.hpp:74] Creating layer loss_1
I1031 22:18:27.727838  9527 net.cpp:90] Creating Layer loss_1
I1031 22:18:27.727846  9527 net.cpp:410] loss_1 <- fc8_1
I1031 22:18:27.727854  9527 net.cpp:410] loss_1 <- label_1
I1031 22:18:27.727861  9527 net.cpp:368] loss_1 -> loss_1
I1031 22:18:27.727872  9527 net.cpp:120] Setting up loss_1
I1031 22:18:27.727881  9527 layer_factory.hpp:74] Creating layer loss_1
…
I1031 22:18:27.729830  9527 net.cpp:287] The NetState phase (1) differed from the phase (0) specified by a rule in layer data_1
I1031 22:18:27.729943  9527 net.cpp:42] Initializing net from parameters: 
name: "face_train_val"
state {
  phase: TEST
}
layer {
  name: "data_1"
  type: "Data"
  top: "data_1"
  top: "label_1"
  include {
    phase: TEST
  }
  transform_param {
    mirror: true
    mean_file: "/media/crw/MyBook/TrainData/LMDB/CASIA-WebFace/10575_64X64/mean.binaryproto"
  }
  data_param {
    source: "/media/crw/MyBook/TrainData/LMDB/CASIA-WebFace/10575_64X64/val"
    batch_size: 128
    backend: LMDB
  }
}
layer {
  name: "conv1_1"
  type: "Convolution"
  bottom: "data_1"
  top: "conv1_1"
  param {
    name: "conv1_w"
    lr_mult: 1
    decay_mult: 1
  }
  param {
    name: "conv1_b"
    lr_mult: 2
    decay_mult: 0
  }
  convolution_param {
    num_output: 20
    kernel_size: 4
    stride: 1
    weight_filler {
      type: "gaussian"
      std: 0.01
    }
    bias_filler {
      type: "constant"
      value: 0
    }
  }
}
layer {
  name: "relu1_1"
  type: "ReLU"
  bottom: "conv1_1"
  top: "conv1_1"
}
layer {
  name: "norm1_1"
  type: "LRN"
  bottom: "conv1_1"
  top: "norm1_1"
  lrn_param {
    local_size: 5
    alpha: 0.0001
    beta: 0.75
  }
}
layer {
  name: "pool1_1"
  type: "Pooling"
  bottom: "norm1_1"
  top: "pool1_1"
  pooling_param {
    pool: MAX
    kernel_size: 2
    stride: 2
  }
}
layer {
  name: "conv2_1"
  type: "Convolution"
  bottom: "pool1_1"
  top: "conv2_1"
  param {
    name: "conv2_w"
    lr_mult: 1
    decay_mult: 1
  }
  param {
    name: "conv2_b"
    lr_mult: 2
    decay_mult: 0
  }
  convolution_param {
    num_output: 40
    kernel_size: 3
    group: 2
    weight_filler {
      type: "gaussian"
      std: 0.01
    }
    bias_filler {
      type: "constant"
      value: 0.1
    }
  }
}
layer {
  name: "relu2_1"
  type: "ReLU"
  bottom: "conv2_1"
  top: "conv2_1"
}
layer {
  name: "norm2_1"
  type: "LRN"
  bottom: "conv2_1"
  top: "norm2_1"
  lrn_param {
    local_size: 5
    alpha: 0.0001
    beta: 0.75
  }
}
layer {
  name: "pool2_1"
  type: "Pooling"
  bottom: "norm2_1"
  top: "pool2_1"
  pooling_param {
    pool: MAX
    kernel_size: 2
    stride: 2
  }
}
layer {
  name: "conv3_1"
  type: "Convolution"
  bottom: "pool2_1"
  top: "conv3_1"
  param {
    name: "conv3_w"
    lr_mult: 1
    decay_mult: 1
  }
  param {
    name: "conv3_b"
    lr_mult: 2
    decay_mult: 0
  }
  convolution_param {
    num_output: 60
    kernel_size: 3
    weight_filler {
      type: "gaussian"
      std: 0.01
    }
    bias_filler {
      type: "constant"
      value: 0
    }
  }
}
layer {
  name: "pool3_1"
  type: "Pooling"
  bottom: "conv3_1"
  top: "pool3_1"
  pooling_param {
    pool: MAX
    kernel_size: 2
    stride: 2
  }
}
layer {
  name: "conv4_1"
  type: "Convolution"
  bottom: "pool3_1"
  top: "conv4_1"
  param {
    name: "conv4_w"
    lr_mult: 1
    decay_mult: 1
  }
  param {
    name: "conv4_b"
    lr_mult: 2
    decay_mult: 0
  }
  convolution_param {
    num_output: 80
    kernel_size: 2
    stride: 2
    weight_filler {
      type: "gaussian"
      std: 0.01
    }
    bias_filler {
      type: "constant"
      value: 0.1
    }
  }
}
layer {
  name: "flatten_pool3_1"
  type: "Flatten"
  bottom: "pool3_1"
  top: "flatten_pool3_1"
}
layer {
  name: "flatten_conv4_1"
  type: "Flatten"
  bottom: "conv4_1"
  top: "flatten_conv4_1"
}
layer {
  name: "contact_conv"
  type: "Concat"
  bottom: "flatten_conv4_1"
  bottom: "flatten_pool3_1"
  top: "contact_conv"
}
layer {
  name: "deepid_1"
  type: "InnerProduct"
  bottom: "contact_conv"
  top: "deepid_1"
  param {
    name: "fc6_w"
    lr_mult: 1
    decay_mult: 1
  }
  param {
    name: "fc6_b"
    lr_mult: 2
    decay_mult: 0
  }
  inner_product_param {
    num_output: 160
    weight_filler {
      type: "gaussian"
      std: 0.005
    }
    bias_filler {
      type: "constant"
      value: 0.1
    }
  }
}
layer {
  name: "relu6_1"
  type: "ReLU"
  bottom: "deepid_1"
  top: "deepid_1"
}
layer {
  name: "drop6_1"
  type: "Dropout"
  bottom: "deepid_1"
  top: "deepid_1"
  dropout_param {
    dropout_ratio: 0.5
  }
}
layer {
  name: "fc8_1"
  type: "InnerProduct"
  bottom: "deepid_1"
  top: "fc8_1"
  param {
    name: "fc8_w"
    lr_mult: 1
    decay_mult: 1
  }
  param {
    name: "fc8_b"
    lr_mult: 2
    decay_mult: 0
  }
  inner_product_param {
    num_output: 10575
    weight_filler {
      type: "gaussian"
      std: 0.01
    }
    bias_filler {
      type: "constant"
      value: 0
    }
  }
}
layer {
  name: "accuracy_1"
  type: "Accuracy"
  bottom: "fc8_1"
  bottom: "label_1"
  top: "accuracy_1"
  include {
    phase: TEST
  }
}
layer {
  name: "loss_1"
  type: "SoftmaxWithLoss"
  bottom: "fc8_1"
  bottom: "label_1"
  top: "loss_1"
}
I1031 22:18:27.730649  9527 layer_factory.hpp:74] Creating layer data_1
I1031 22:18:27.730661  9527 net.cpp:90] Creating Layer data_1
I1031 22:18:27.730669  9527 net.cpp:368] data_1 -> data_1
I1031 22:18:27.730679  9527 net.cpp:368] data_1 -> label_1
I1031 22:18:27.730686  9527 net.cpp:120] Setting up data_1
I1031 22:18:27.730873  9527 db.cpp:34] Opened lmdb /media/crw/MyBook/TrainData/LMDB/CASIA-WebFace/10575_64X64/val
I1031 22:18:27.730907  9527 data_layer.cpp:67] output data size: 128,3,64,64
I1031 22:18:27.730916  9527 data_transformer.cpp:22] Loading mean file from: /media/crw/MyBook/TrainData/LMDB/CASIA-WebFace/10575_64X64/mean.binaryproto
I1031 22:18:27.731899  9527 net.cpp:127] Top shape: 128 3 64 64 (1572864)
I1031 22:18:27.731914  9527 net.cpp:127] Top shape: 128 (128)
I1031 22:18:27.731921  9527 layer_factory.hpp:74] Creating layer label_1_data_1_1_split
I1031 22:18:27.731931  9527 net.cpp:90] Creating Layer label_1_data_1_1_split
I1031 22:18:27.731937  9527 net.cpp:410] label_1_data_1_1_split <- label_1
I1031 22:18:27.731945  9527 net.cpp:368] label_1_data_1_1_split -> label_1_data_1_1_split_0
I1031 22:18:27.731956  9527 net.cpp:368] label_1_data_1_1_split -> label_1_data_1_1_split_1
I1031 22:18:27.731962  9527 net.cpp:120] Setting up label_1_data_1_1_split
I1031 22:18:27.731971  9527 net.cpp:127] Top shape: 128 (128)
I1031 22:18:27.731977  9527 net.cpp:127] Top shape: 128 (128)
I1031 22:18:27.731982  9527 layer_factory.hpp:74] Creating layer conv1_1
I1031 22:18:27.731992  9527 net.cpp:90] Creating Layer conv1_1
I1031 22:18:27.731997  9527 net.cpp:410] conv1_1 <- data_1
I1031 22:18:27.732005  9527 net.cpp:368] conv1_1 -> conv1_1
I1031 22:18:27.732013  9527 net.cpp:120] Setting up conv1_1
I1031 22:18:27.732049  9527 net.cpp:127] Top shape: 128 20 61 61 (9525760)
I1031 22:18:27.732059  9527 layer_factory.hpp:74] Creating layer relu1_1
I1031 22:18:27.732066  9527 net.cpp:90] Creating Layer relu1_1
I1031 22:18:27.732071  9527 net.cpp:410] relu1_1 <- conv1_1
I1031 22:18:27.732079  9527 net.cpp:357] relu1_1 -> conv1_1 (in-place)
I1031 22:18:27.732085  9527 net.cpp:120] Setting up relu1_1
I1031 22:18:27.732092  9527 net.cpp:127] Top shape: 128 20 61 61 (9525760)
I1031 22:18:27.732102  9527 layer_factory.hpp:74] Creating layer norm1_1
I1031 22:18:27.732110  9527 net.cpp:90] Creating Layer norm1_1
I1031 22:18:27.732115  9527 net.cpp:410] norm1_1 <- conv1_1
I1031 22:18:27.732122  9527 net.cpp:368] norm1_1 -> norm1_1
I1031 22:18:27.732130  9527 net.cpp:120] Setting up norm1_1
I1031 22:18:27.732137  9527 net.cpp:127] Top shape: 128 20 61 61 (9525760)
I1031 22:18:27.732143  9527 layer_factory.hpp:74] Creating layer pool1_1
I1031 22:18:27.732151  9527 net.cpp:90] Creating Layer pool1_1
I1031 22:18:27.732156  9527 net.cpp:410] pool1_1 <- norm1_1
I1031 22:18:27.732162  9527 net.cpp:368] pool1_1 -> pool1_1
I1031 22:18:27.732169  9527 net.cpp:120] Setting up pool1_1
I1031 22:18:27.732177  9527 net.cpp:127] Top shape: 128 20 31 31 (2460160)
I1031 22:18:27.732197  9527 layer_factory.hpp:74] Creating layer conv2_1
I1031 22:18:27.732204  9527 net.cpp:90] Creating Layer conv2_1
I1031 22:18:27.732210  9527 net.cpp:410] conv2_1 <- pool1_1
I1031 22:18:27.732219  9527 net.cpp:368] conv2_1 -> conv2_1
I1031 22:18:27.732228  9527 net.cpp:120] Setting up conv2_1
I1031 22:18:27.732311  9527 net.cpp:127] Top shape: 128 40 29 29 (4305920)
I1031 22:18:27.732321  9527 layer_factory.hpp:74] Creating layer relu2_1
I1031 22:18:27.732327  9527 net.cpp:90] Creating Layer relu2_1
I1031 22:18:27.732333  9527 net.cpp:410] relu2_1 <- conv2_1
I1031 22:18:27.732341  9527 net.cpp:357] relu2_1 -> conv2_1 (in-place)
I1031 22:18:27.732347  9527 net.cpp:120] Setting up relu2_1
I1031 22:18:27.732353  9527 net.cpp:127] Top shape: 128 40 29 29 (4305920)
I1031 22:18:27.732358  9527 layer_factory.hpp:74] Creating layer norm2_1
I1031 22:18:27.732367  9527 net.cpp:90] Creating Layer norm2_1
I1031 22:18:27.732372  9527 net.cpp:410] norm2_1 <- conv2_1
I1031 22:18:27.732379  9527 net.cpp:368] norm2_1 -> norm2_1
I1031 22:18:27.732386  9527 net.cpp:120] Setting up norm2_1
I1031 22:18:27.732394  9527 net.cpp:127] Top shape: 128 40 29 29 (4305920)
I1031 22:18:27.732400  9527 layer_factory.hpp:74] Creating layer pool2_1
I1031 22:18:27.732406  9527 net.cpp:90] Creating Layer pool2_1
I1031 22:18:27.732413  9527 net.cpp:410] pool2_1 <- norm2_1
I1031 22:18:27.732419  9527 net.cpp:368] pool2_1 -> pool2_1
I1031 22:18:27.732425  9527 net.cpp:120] Setting up pool2_1
I1031 22:18:27.732434  9527 net.cpp:127] Top shape: 128 40 15 15 (1152000)
I1031 22:18:27.732439  9527 layer_factory.hpp:74] Creating layer conv3_1
I1031 22:18:27.732446  9527 net.cpp:90] Creating Layer conv3_1
I1031 22:18:27.732452  9527 net.cpp:410] conv3_1 <- pool2_1
I1031 22:18:27.732460  9527 net.cpp:368] conv3_1 -> conv3_1
I1031 22:18:27.732468  9527 net.cpp:120] Setting up conv3_1
I1031 22:18:27.732909  9527 net.cpp:127] Top shape: 128 60 13 13 (1297920)
I1031 22:18:27.732918  9527 layer_factory.hpp:74] Creating layer pool3_1
I1031 22:18:27.732926  9527 net.cpp:90] Creating Layer pool3_1
I1031 22:18:27.732933  9527 net.cpp:410] pool3_1 <- conv3_1
I1031 22:18:27.732939  9527 net.cpp:368] pool3_1 -> pool3_1
I1031 22:18:27.732947  9527 net.cpp:120] Setting up pool3_1
I1031 22:18:27.732954  9527 net.cpp:127] Top shape: 128 60 7 7 (376320)
I1031 22:18:27.732960  9527 layer_factory.hpp:74] Creating layer pool3_1_pool3_1_0_split
I1031 22:18:27.732967  9527 net.cpp:90] Creating Layer pool3_1_pool3_1_0_split
I1031 22:18:27.732974  9527 net.cpp:410] pool3_1_pool3_1_0_split <- pool3_1
I1031 22:18:27.732980  9527 net.cpp:368] pool3_1_pool3_1_0_split -> pool3_1_pool3_1_0_split_0
I1031 22:18:27.732988  9527 net.cpp:368] pool3_1_pool3_1_0_split -> pool3_1_pool3_1_0_split_1
I1031 22:18:27.732995  9527 net.cpp:120] Setting up pool3_1_pool3_1_0_split
I1031 22:18:27.733005  9527 net.cpp:127] Top shape: 128 60 7 7 (376320)
I1031 22:18:27.733011  9527 net.cpp:127] Top shape: 128 60 7 7 (376320)
I1031 22:18:27.733016  9527 layer_factory.hpp:74] Creating layer conv4_1
I1031 22:18:27.733024  9527 net.cpp:90] Creating Layer conv4_1
I1031 22:18:27.733029  9527 net.cpp:410] conv4_1 <- pool3_1_pool3_1_0_split_0
I1031 22:18:27.733038  9527 net.cpp:368] conv4_1 -> conv4_1
I1031 22:18:27.733047  9527 net.cpp:120] Setting up conv4_1
I1031 22:18:27.733439  9527 net.cpp:127] Top shape: 128 80 3 3 (92160)
I1031 22:18:27.733448  9527 layer_factory.hpp:74] Creating layer flatten_pool3_1
I1031 22:18:27.733456  9527 net.cpp:90] Creating Layer flatten_pool3_1
I1031 22:18:27.733463  9527 net.cpp:410] flatten_pool3_1 <- pool3_1_pool3_1_0_split_1
I1031 22:18:27.733469  9527 net.cpp:368] flatten_pool3_1 -> flatten_pool3_1
I1031 22:18:27.733476  9527 net.cpp:120] Setting up flatten_pool3_1
I1031 22:18:27.733484  9527 net.cpp:127] Top shape: 128 2940 (376320)
I1031 22:18:27.733490  9527 layer_factory.hpp:74] Creating layer flatten_conv4_1
I1031 22:18:27.733496  9527 net.cpp:90] Creating Layer flatten_conv4_1
I1031 22:18:27.733502  9527 net.cpp:410] flatten_conv4_1 <- conv4_1
I1031 22:18:27.733508  9527 net.cpp:368] flatten_conv4_1 -> flatten_conv4_1
I1031 22:18:27.733522  9527 net.cpp:120] Setting up flatten_conv4_1
I1031 22:18:27.733530  9527 net.cpp:127] Top shape: 128 720 (92160)
I1031 22:18:27.733536  9527 layer_factory.hpp:74] Creating layer contact_conv
I1031 22:18:27.733546  9527 net.cpp:90] Creating Layer contact_conv
I1031 22:18:27.733551  9527 net.cpp:410] contact_conv <- flatten_conv4_1
I1031 22:18:27.733561  9527 net.cpp:410] contact_conv <- flatten_pool3_1
I1031 22:18:27.733568  9527 net.cpp:368] contact_conv -> contact_conv
I1031 22:18:27.733575  9527 net.cpp:120] Setting up contact_conv
I1031 22:18:27.733583  9527 net.cpp:127] Top shape: 128 3660 (468480)
I1031 22:18:27.733589  9527 layer_factory.hpp:74] Creating layer deepid_1
I1031 22:18:27.733597  9527 net.cpp:90] Creating Layer deepid_1
I1031 22:18:27.733603  9527 net.cpp:410] deepid_1 <- contact_conv
I1031 22:18:27.733610  9527 net.cpp:368] deepid_1 -> deepid_1
I1031 22:18:27.733618  9527 net.cpp:120] Setting up deepid_1
I1031 22:18:27.745062  9527 net.cpp:127] Top shape: 128 160 (20480)
I1031 22:18:27.745085  9527 layer_factory.hpp:74] Creating layer relu6_1
I1031 22:18:27.745095  9527 net.cpp:90] Creating Layer relu6_1
I1031 22:18:27.745101  9527 net.cpp:410] relu6_1 <- deepid_1
I1031 22:18:27.745110  9527 net.cpp:357] relu6_1 -> deepid_1 (in-place)
I1031 22:18:27.745118  9527 net.cpp:120] Setting up relu6_1
I1031 22:18:27.745126  9527 net.cpp:127] Top shape: 128 160 (20480)
I1031 22:18:27.745131  9527 layer_factory.hpp:74] Creating layer drop6_1
I1031 22:18:27.745139  9527 net.cpp:90] Creating Layer drop6_1
I1031 22:18:27.745146  9527 net.cpp:410] drop6_1 <- deepid_1
I1031 22:18:27.745153  9527 net.cpp:357] drop6_1 -> deepid_1 (in-place)
I1031 22:18:27.745160  9527 net.cpp:120] Setting up drop6_1
I1031 22:18:27.745168  9527 net.cpp:127] Top shape: 128 160 (20480)
I1031 22:18:27.745174  9527 layer_factory.hpp:74] Creating layer fc8_1
I1031 22:18:27.745183  9527 net.cpp:90] Creating Layer fc8_1
I1031 22:18:27.745188  9527 net.cpp:410] fc8_1 <- deepid_1
I1031 22:18:27.745196  9527 net.cpp:368] fc8_1 -> fc8_1
I1031 22:18:27.745205  9527 net.cpp:120] Setting up fc8_1
I1031 22:18:27.778398  9527 net.cpp:127] Top shape: 128 10575 (1353600)
I1031 22:18:27.778422  9527 layer_factory.hpp:74] Creating layer fc8_1_fc8_1_0_split
I1031 22:18:27.778434  9527 net.cpp:90] Creating Layer fc8_1_fc8_1_0_split
I1031 22:18:27.778441  9527 net.cpp:410] fc8_1_fc8_1_0_split <- fc8_1
I1031 22:18:27.778450  9527 net.cpp:368] fc8_1_fc8_1_0_split -> fc8_1_fc8_1_0_split_0
I1031 22:18:27.778460  9527 net.cpp:368] fc8_1_fc8_1_0_split -> fc8_1_fc8_1_0_split_1
I1031 22:18:27.778472  9527 net.cpp:120] Setting up fc8_1_fc8_1_0_split
I1031 22:18:27.778481  9527 net.cpp:127] Top shape: 128 10575 (1353600)
I1031 22:18:27.778487  9527 net.cpp:127] Top shape: 128 10575 (1353600)
I1031 22:18:27.778493  9527 layer_factory.hpp:74] Creating layer accuracy_1
I1031 22:18:27.778501  9527 net.cpp:90] Creating Layer accuracy_1
I1031 22:18:27.778507  9527 net.cpp:410] accuracy_1 <- fc8_1_fc8_1_0_split_0
I1031 22:18:27.778513  9527 net.cpp:410] accuracy_1 <- label_1_data_1_1_split_0
I1031 22:18:27.778522  9527 net.cpp:368] accuracy_1 -> accuracy_1
I1031 22:18:27.778530  9527 net.cpp:120] Setting up accuracy_1
…
