…
I0707 16:52:24.260277  2443 net.cpp:287] The NetState phase (0) differed from the phase (1) specified by a rule in layer accuracy_1
I0707 16:52:24.260382  2443 net.cpp:42] Initializing net from parameters: 
name: "face_train_test"
state {
  phase: TRAIN
}
layer {
  name: "data_1"
  type: "Data"
  top: "data_1"
  top: "label_1"
  include {
    phase: TRAIN
  }
  transform_param {
    mean_file: "/media/crw/MyBook/TrainData/LMDB/FaceRecognition/webface10575_48/mean.binaryproto"
  }
  data_param {
    source: "/media/crw/MyBook/TrainData/LMDB/FaceRecognition/webface10575_48/train"
    batch_size: 32
    backend: LMDB
  }
}
layer {
  name: "conv1_1"
  type: "Convolution"
  bottom: "data_1"
  top: "conv1_1"
  param {
    name: "conv1_w"
    lr_mult: 1
    decay_mult: 1
  }
  param {
    name: "conv1_b"
    lr_mult: 2
    decay_mult: 0
  }
  convolution_param {
    num_output: 20
    kernel_size: 4
    stride: 1
    weight_filler {
      type: "gaussian"
      std: 0.01
    }
    bias_filler {
      type: "constant"
      value: 0
    }
  }
}
layer {
  name: "relu1_1"
  type: "ReLU"
  bottom: "conv1_1"
  top: "conv1_1"
}
layer {
  name: "norm1_1"
  type: "LRN"
  bottom: "conv1_1"
  top: "norm1_1"
  lrn_param {
    local_size: 5
    alpha: 0.0001
    beta: 0.75
  }
}
layer {
  name: "pool1_1"
  type: "Pooling"
  bottom: "norm1_1"
  top: "pool1_1"
  pooling_param {
    pool: MAX
    kernel_size: 2
    stride: 2
  }
}
layer {
  name: "conv2_1"
  type: "Convolution"
  bottom: "pool1_1"
  top: "conv2_1"
  param {
    name: "conv2_w"
    lr_mult: 1
    decay_mult: 1
  }
  param {
    name: "conv2_b"
    lr_mult: 2
    decay_mult: 0
  }
  convolution_param {
    num_output: 40
    kernel_size: 3
    group: 2
    weight_filler {
      type: "gaussian"
      std: 0.01
    }
    bias_filler {
      type: "constant"
      value: 0.1
    }
  }
}
layer {
  name: "relu2_1"
  type: "ReLU"
  bottom: "conv2_1"
  top: "conv2_1"
}
layer {
  name: "norm2_1"
  type: "LRN"
  bottom: "conv2_1"
  top: "norm2_1"
  lrn_param {
    local_size: 5
    alpha: 0.0001
    beta: 0.75
  }
}
layer {
  name: "pool2_1"
  type: "Pooling"
  bottom: "norm2_1"
  top: "pool2_1"
  pooling_param {
    pool: MAX
    kernel_size: 2
    stride: 2
  }
}
layer {
  name: "conv3_1"
  type: "Convolution"
  bottom: "pool2_1"
  top: "conv3_1"
  param {
    name: "conv3_w"
    lr_mult: 1
    decay_mult: 1
  }
  param {
    name: "conv3_b"
    lr_mult: 2
    decay_mult: 0
  }
  convolution_param {
    num_output: 60
    kernel_size: 3
    weight_filler {
      type: "gaussian"
      std: 0.01
    }
    bias_filler {
      type: "constant"
      value: 0
    }
  }
}
layer {
  name: "pool3_1"
  type: "Pooling"
  bottom: "conv3_1"
  top: "pool3_1"
  pooling_param {
    pool: MAX
    kernel_size: 2
    stride: 2
  }
}
layer {
  name: "conv4_1"
  type: "Convolution"
  bottom: "pool3_1"
  top: "conv4_1"
  param {
    name: "conv4_w"
    lr_mult: 1
    decay_mult: 1
  }
  param {
    name: "conv4_b"
    lr_mult: 2
    decay_mult: 0
  }
  convolution_param {
    num_output: 80
    kernel_size: 2
    stride: 2
    weight_filler {
      type: "gaussian"
      std: 0.01
    }
    bias_filler {
      type: "constant"
      value: 0.1
    }
  }
}
layer {
  name: "flatten_pool3_1"
  type: "Flatten"
  bottom: "pool3_1"
  top: "flatten_pool3_1"
}
layer {
  name: "flatten_conv4_1"
  type: "Flatten"
  bottom: "conv4_1"
  top: "flatten_conv4_1"
}
layer {
  name: "contact_conv"
  type: "Concat"
  bottom: "flatten_conv4_1"
  bottom: "flatten_pool3_1"
  top: "contact_conv"
}
layer {
  name: "deepid_1"
  type: "InnerProduct"
  bottom: "contact_conv"
  top: "deepid_1"
  param {
    name: "fc6_w"
    lr_mult: 1
    decay_mult: 1
  }
  param {
    name: "fc6_b"
    lr_mult: 2
    decay_mult: 0
  }
  inner_product_param {
    num_output: 160
    weight_filler {
      type: "gaussian"
      std: 0.005
    }
    bias_filler {
      type: "constant"
      value: 0.1
    }
  }
}
layer {
  name: "relu6_1"
  type: "ReLU"
  bottom: "deepid_1"
  top: "deepid_1"
}
layer {
  name: "drop6_1"
  type: "Dropout"
  bottom: "deepid_1"
  top: "deepid_1"
  dropout_param {
    dropout_ratio: 0.5
  }
}
layer {
  name: "fc8_1"
  type: "InnerProduct"
  bottom: "deepid_1"
  top: "fc8_1"
  param {
    name: "fc8_w"
    lr_mult: 1
    decay_mult: 1
  }
  param {
    name: "fc8_b"
    lr_mult: 2
    decay_mult: 0
  }
  inner_product_param {
    num_output: 10575
    weight_filler {
      type: "gaussian"
      std: 0.01
    }
    bias_filler {
      type: "constant"
      value: 0
    }
  }
}
layer {
  name: "loss_1"
  type: "SoftmaxWithLoss"
  bottom: "fc8_1"
  bottom: "label_1"
  top: "loss_1"
}
I0707 16:52:24.261059  2443 layer_factory.hpp:74] Creating layer data_1
I0707 16:52:24.274026  2443 net.cpp:90] Creating Layer data_1
I0707 16:52:24.274057  2443 net.cpp:368] data_1 -> data_1
I0707 16:52:24.274086  2443 net.cpp:368] data_1 -> label_1
I0707 16:52:24.274101  2443 net.cpp:120] Setting up data_1
I0707 16:52:24.447336  2443 db.cpp:34] Opened lmdb /media/crw/MyBook/TrainData/LMDB/FaceRecognition/webface10575_48/train
I0707 16:52:24.548328  2443 data_layer.cpp:67] output data size: 32,3,48,48
I0707 16:52:24.548353  2443 data_transformer.cpp:22] Loading mean file from: /media/crw/MyBook/TrainData/LMDB/FaceRecognition/webface10575_48/mean.binaryproto
I0707 16:52:24.649655  2443 net.cpp:127] Top shape: 32 3 48 48 (221184)
I0707 16:52:24.649674  2443 net.cpp:127] Top shape: 32 (32)
I0707 16:52:24.649680  2443 layer_factory.hpp:74] Creating layer conv1_1
I0707 16:52:24.649711  2443 net.cpp:90] Creating Layer conv1_1
I0707 16:52:24.649724  2443 net.cpp:410] conv1_1 <- data_1
I0707 16:52:24.649739  2443 net.cpp:368] conv1_1 -> conv1_1
I0707 16:52:24.649751  2443 net.cpp:120] Setting up conv1_1
I0707 16:52:24.650130  2443 net.cpp:127] Top shape: 32 20 45 45 (1296000)
I0707 16:52:24.650142  2443 layer_factory.hpp:74] Creating layer relu1_1
I0707 16:52:24.650152  2443 net.cpp:90] Creating Layer relu1_1
I0707 16:52:24.650156  2443 net.cpp:410] relu1_1 <- conv1_1
I0707 16:52:24.650187  2443 net.cpp:357] relu1_1 -> conv1_1 (in-place)
I0707 16:52:24.650204  2443 net.cpp:120] Setting up relu1_1
I0707 16:52:24.650215  2443 net.cpp:127] Top shape: 32 20 45 45 (1296000)
I0707 16:52:24.650223  2443 layer_factory.hpp:74] Creating layer norm1_1
I0707 16:52:24.650231  2443 net.cpp:90] Creating Layer norm1_1
I0707 16:52:24.650236  2443 net.cpp:410] norm1_1 <- conv1_1
I0707 16:52:24.650244  2443 net.cpp:368] norm1_1 -> norm1_1
I0707 16:52:24.650252  2443 net.cpp:120] Setting up norm1_1
I0707 16:52:24.650262  2443 net.cpp:127] Top shape: 32 20 45 45 (1296000)
I0707 16:52:24.650270  2443 layer_factory.hpp:74] Creating layer pool1_1
I0707 16:52:24.650280  2443 net.cpp:90] Creating Layer pool1_1
I0707 16:52:24.650287  2443 net.cpp:410] pool1_1 <- norm1_1
I0707 16:52:24.650295  2443 net.cpp:368] pool1_1 -> pool1_1
I0707 16:52:24.650305  2443 net.cpp:120] Setting up pool1_1
I0707 16:52:24.650321  2443 net.cpp:127] Top shape: 32 20 23 23 (338560)
I0707 16:52:24.650327  2443 layer_factory.hpp:74] Creating layer conv2_1
I0707 16:52:24.650336  2443 net.cpp:90] Creating Layer conv2_1
I0707 16:52:24.650341  2443 net.cpp:410] conv2_1 <- pool1_1
I0707 16:52:24.650351  2443 net.cpp:368] conv2_1 -> conv2_1
I0707 16:52:24.650358  2443 net.cpp:120] Setting up conv2_1
I0707 16:52:24.650460  2443 net.cpp:127] Top shape: 32 40 21 21 (564480)
I0707 16:52:24.650470  2443 layer_factory.hpp:74] Creating layer relu2_1
I0707 16:52:24.650491  2443 net.cpp:90] Creating Layer relu2_1
I0707 16:52:24.650497  2443 net.cpp:410] relu2_1 <- conv2_1
I0707 16:52:24.650504  2443 net.cpp:357] relu2_1 -> conv2_1 (in-place)
I0707 16:52:24.650511  2443 net.cpp:120] Setting up relu2_1
I0707 16:52:24.650518  2443 net.cpp:127] Top shape: 32 40 21 21 (564480)
I0707 16:52:24.650524  2443 layer_factory.hpp:74] Creating layer norm2_1
I0707 16:52:24.650532  2443 net.cpp:90] Creating Layer norm2_1
I0707 16:52:24.650537  2443 net.cpp:410] norm2_1 <- conv2_1
I0707 16:52:24.650544  2443 net.cpp:368] norm2_1 -> norm2_1
I0707 16:52:24.650552  2443 net.cpp:120] Setting up norm2_1
I0707 16:52:24.650559  2443 net.cpp:127] Top shape: 32 40 21 21 (564480)
I0707 16:52:24.650564  2443 layer_factory.hpp:74] Creating layer pool2_1
I0707 16:52:24.650573  2443 net.cpp:90] Creating Layer pool2_1
I0707 16:52:24.650578  2443 net.cpp:410] pool2_1 <- norm2_1
I0707 16:52:24.650584  2443 net.cpp:368] pool2_1 -> pool2_1
I0707 16:52:24.650591  2443 net.cpp:120] Setting up pool2_1
I0707 16:52:24.650599  2443 net.cpp:127] Top shape: 32 40 11 11 (154880)
I0707 16:52:24.650604  2443 layer_factory.hpp:74] Creating layer conv3_1
I0707 16:52:24.650611  2443 net.cpp:90] Creating Layer conv3_1
I0707 16:52:24.650617  2443 net.cpp:410] conv3_1 <- pool2_1
I0707 16:52:24.650625  2443 net.cpp:368] conv3_1 -> conv3_1
I0707 16:52:24.650634  2443 net.cpp:120] Setting up conv3_1
I0707 16:52:24.651083  2443 net.cpp:127] Top shape: 32 60 9 9 (155520)
I0707 16:52:24.651094  2443 layer_factory.hpp:74] Creating layer pool3_1
I0707 16:52:24.651103  2443 net.cpp:90] Creating Layer pool3_1
I0707 16:52:24.651108  2443 net.cpp:410] pool3_1 <- conv3_1
I0707 16:52:24.651115  2443 net.cpp:368] pool3_1 -> pool3_1
I0707 16:52:24.651123  2443 net.cpp:120] Setting up pool3_1
I0707 16:52:24.651130  2443 net.cpp:127] Top shape: 32 60 5 5 (48000)
I0707 16:52:24.651136  2443 layer_factory.hpp:74] Creating layer pool3_1_pool3_1_0_split
I0707 16:52:24.651154  2443 net.cpp:90] Creating Layer pool3_1_pool3_1_0_split
I0707 16:52:24.651160  2443 net.cpp:410] pool3_1_pool3_1_0_split <- pool3_1
I0707 16:52:24.651166  2443 net.cpp:368] pool3_1_pool3_1_0_split -> pool3_1_pool3_1_0_split_0
I0707 16:52:24.651173  2443 net.cpp:368] pool3_1_pool3_1_0_split -> pool3_1_pool3_1_0_split_1
I0707 16:52:24.651180  2443 net.cpp:120] Setting up pool3_1_pool3_1_0_split
I0707 16:52:24.651191  2443 net.cpp:127] Top shape: 32 60 5 5 (48000)
I0707 16:52:24.651197  2443 net.cpp:127] Top shape: 32 60 5 5 (48000)
I0707 16:52:24.651203  2443 layer_factory.hpp:74] Creating layer conv4_1
I0707 16:52:24.651212  2443 net.cpp:90] Creating Layer conv4_1
I0707 16:52:24.651218  2443 net.cpp:410] conv4_1 <- pool3_1_pool3_1_0_split_0
I0707 16:52:24.651226  2443 net.cpp:368] conv4_1 -> conv4_1
I0707 16:52:24.651233  2443 net.cpp:120] Setting up conv4_1
I0707 16:52:24.651695  2443 net.cpp:127] Top shape: 32 80 2 2 (10240)
I0707 16:52:24.651708  2443 layer_factory.hpp:74] Creating layer flatten_pool3_1
I0707 16:52:24.651718  2443 net.cpp:90] Creating Layer flatten_pool3_1
I0707 16:52:24.651725  2443 net.cpp:410] flatten_pool3_1 <- pool3_1_pool3_1_0_split_1
I0707 16:52:24.651731  2443 net.cpp:368] flatten_pool3_1 -> flatten_pool3_1
I0707 16:52:24.651738  2443 net.cpp:120] Setting up flatten_pool3_1
I0707 16:52:24.651746  2443 net.cpp:127] Top shape: 32 1500 (48000)
I0707 16:52:24.651752  2443 layer_factory.hpp:74] Creating layer flatten_conv4_1
I0707 16:52:24.651758  2443 net.cpp:90] Creating Layer flatten_conv4_1
I0707 16:52:24.651763  2443 net.cpp:410] flatten_conv4_1 <- conv4_1
I0707 16:52:24.651772  2443 net.cpp:368] flatten_conv4_1 -> flatten_conv4_1
I0707 16:52:24.651778  2443 net.cpp:120] Setting up flatten_conv4_1
I0707 16:52:24.651785  2443 net.cpp:127] Top shape: 32 320 (10240)
I0707 16:52:24.651792  2443 layer_factory.hpp:74] Creating layer contact_conv
I0707 16:52:24.651798  2443 net.cpp:90] Creating Layer contact_conv
I0707 16:52:24.651804  2443 net.cpp:410] contact_conv <- flatten_conv4_1
I0707 16:52:24.651810  2443 net.cpp:410] contact_conv <- flatten_pool3_1
I0707 16:52:24.651823  2443 net.cpp:368] contact_conv -> contact_conv
I0707 16:52:24.651831  2443 net.cpp:120] Setting up contact_conv
I0707 16:52:24.651846  2443 net.cpp:127] Top shape: 32 1820 (58240)
I0707 16:52:24.651852  2443 layer_factory.hpp:74] Creating layer deepid_1
I0707 16:52:24.651862  2443 net.cpp:90] Creating Layer deepid_1
I0707 16:52:24.651867  2443 net.cpp:410] deepid_1 <- contact_conv
I0707 16:52:24.651876  2443 net.cpp:368] deepid_1 -> deepid_1
I0707 16:52:24.651886  2443 net.cpp:120] Setting up deepid_1
I0707 16:52:24.657749  2443 net.cpp:127] Top shape: 32 160 (5120)
I0707 16:52:24.657768  2443 layer_factory.hpp:74] Creating layer relu6_1
I0707 16:52:24.657776  2443 net.cpp:90] Creating Layer relu6_1
I0707 16:52:24.657783  2443 net.cpp:410] relu6_1 <- deepid_1
I0707 16:52:24.657789  2443 net.cpp:357] relu6_1 -> deepid_1 (in-place)
I0707 16:52:24.657796  2443 net.cpp:120] Setting up relu6_1
I0707 16:52:24.657804  2443 net.cpp:127] Top shape: 32 160 (5120)
I0707 16:52:24.657809  2443 layer_factory.hpp:74] Creating layer drop6_1
I0707 16:52:24.657819  2443 net.cpp:90] Creating Layer drop6_1
I0707 16:52:24.657824  2443 net.cpp:410] drop6_1 <- deepid_1
I0707 16:52:24.657830  2443 net.cpp:357] drop6_1 -> deepid_1 (in-place)
I0707 16:52:24.657838  2443 net.cpp:120] Setting up drop6_1
I0707 16:52:24.657848  2443 net.cpp:127] Top shape: 32 160 (5120)
I0707 16:52:24.657855  2443 layer_factory.hpp:74] Creating layer fc8_1
I0707 16:52:24.657862  2443 net.cpp:90] Creating Layer fc8_1
I0707 16:52:24.657867  2443 net.cpp:410] fc8_1 <- deepid_1
I0707 16:52:24.657876  2443 net.cpp:368] fc8_1 -> fc8_1
I0707 16:52:24.657883  2443 net.cpp:120] Setting up fc8_1
I0707 16:52:24.692589  2443 net.cpp:127] Top shape: 32 10575 (338400)
I0707 16:52:24.692617  2443 layer_factory.hpp:74] Creating layer loss_1
I0707 16:52:24.692631  2443 net.cpp:90] Creating Layer loss_1
I0707 16:52:24.692639  2443 net.cpp:410] loss_1 <- fc8_1
I0707 16:52:24.692646  2443 net.cpp:410] loss_1 <- label_1
I0707 16:52:24.692656  2443 net.cpp:368] loss_1 -> loss_1
I0707 16:52:24.692667  2443 net.cpp:120] Setting up loss_1
I0707 16:52:24.692677  2443 layer_factory.hpp:74] Creating layer loss_1
…
I0707 16:52:24.693744  2443 net.cpp:287] The NetState phase (1) differed from the phase (0) specified by a rule in layer data_1
I0707 16:52:24.693856  2443 net.cpp:42] Initializing net from parameters: 
name: "face_train_test"
state {
  phase: TEST
}
layer {
  name: "data_1"
  type: "Data"
  top: "data_1"
  top: "label_1"
  include {
    phase: TEST
  }
  transform_param {
    mean_file: "/media/crw/MyBook/TrainData/LMDB/FaceRecognition/webface10575_48/mean.binaryproto"
  }
  data_param {
    source: "/media/crw/MyBook/TrainData/LMDB/FaceRecognition/webface10575_48/val"
    batch_size: 32
    backend: LMDB
  }
}
layer {
  name: "conv1_1"
  type: "Convolution"
  bottom: "data_1"
  top: "conv1_1"
  param {
    name: "conv1_w"
    lr_mult: 1
    decay_mult: 1
  }
  param {
    name: "conv1_b"
    lr_mult: 2
    decay_mult: 0
  }
  convolution_param {
    num_output: 20
    kernel_size: 4
    stride: 1
    weight_filler {
      type: "gaussian"
      std: 0.01
    }
    bias_filler {
      type: "constant"
      value: 0
    }
  }
}
layer {
  name: "relu1_1"
  type: "ReLU"
  bottom: "conv1_1"
  top: "conv1_1"
}
layer {
  name: "norm1_1"
  type: "LRN"
  bottom: "conv1_1"
  top: "norm1_1"
  lrn_param {
    local_size: 5
    alpha: 0.0001
    beta: 0.75
  }
}
layer {
  name: "pool1_1"
  type: "Pooling"
  bottom: "norm1_1"
  top: "pool1_1"
  pooling_param {
    pool: MAX
    kernel_size: 2
    stride: 2
  }
}
layer {
  name: "conv2_1"
  type: "Convolution"
  bottom: "pool1_1"
  top: "conv2_1"
  param {
    name: "conv2_w"
    lr_mult: 1
    decay_mult: 1
  }
  param {
    name: "conv2_b"
    lr_mult: 2
    decay_mult: 0
  }
  convolution_param {
    num_output: 40
    kernel_size: 3
    group: 2
    weight_filler {
      type: "gaussian"
      std: 0.01
    }
    bias_filler {
      type: "constant"
      value: 0.1
    }
  }
}
layer {
  name: "relu2_1"
  type: "ReLU"
  bottom: "conv2_1"
  top: "conv2_1"
}
layer {
  name: "norm2_1"
  type: "LRN"
  bottom: "conv2_1"
  top: "norm2_1"
  lrn_param {
    local_size: 5
    alpha: 0.0001
    beta: 0.75
  }
}
layer {
  name: "pool2_1"
  type: "Pooling"
  bottom: "norm2_1"
  top: "pool2_1"
  pooling_param {
    pool: MAX
    kernel_size: 2
    stride: 2
  }
}
layer {
  name: "conv3_1"
  type: "Convolution"
  bottom: "pool2_1"
  top: "conv3_1"
  param {
    name: "conv3_w"
    lr_mult: 1
    decay_mult: 1
  }
  param {
    name: "conv3_b"
    lr_mult: 2
    decay_mult: 0
  }
  convolution_param {
    num_output: 60
    kernel_size: 3
    weight_filler {
      type: "gaussian"
      std: 0.01
    }
    bias_filler {
      type: "constant"
      value: 0
    }
  }
}
layer {
  name: "pool3_1"
  type: "Pooling"
  bottom: "conv3_1"
  top: "pool3_1"
  pooling_param {
    pool: MAX
    kernel_size: 2
    stride: 2
  }
}
layer {
  name: "conv4_1"
  type: "Convolution"
  bottom: "pool3_1"
  top: "conv4_1"
  param {
    name: "conv4_w"
    lr_mult: 1
    decay_mult: 1
  }
  param {
    name: "conv4_b"
    lr_mult: 2
    decay_mult: 0
  }
  convolution_param {
    num_output: 80
    kernel_size: 2
    stride: 2
    weight_filler {
      type: "gaussian"
      std: 0.01
    }
    bias_filler {
      type: "constant"
      value: 0.1
    }
  }
}
layer {
  name: "flatten_pool3_1"
  type: "Flatten"
  bottom: "pool3_1"
  top: "flatten_pool3_1"
}
layer {
  name: "flatten_conv4_1"
  type: "Flatten"
  bottom: "conv4_1"
  top: "flatten_conv4_1"
}
layer {
  name: "contact_conv"
  type: "Concat"
  bottom: "flatten_conv4_1"
  bottom: "flatten_pool3_1"
  top: "contact_conv"
}
layer {
  name: "deepid_1"
  type: "InnerProduct"
  bottom: "contact_conv"
  top: "deepid_1"
  param {
    name: "fc6_w"
    lr_mult: 1
    decay_mult: 1
  }
  param {
    name: "fc6_b"
    lr_mult: 2
    decay_mult: 0
  }
  inner_product_param {
    num_output: 160
    weight_filler {
      type: "gaussian"
      std: 0.005
    }
    bias_filler {
      type: "constant"
      value: 0.1
    }
  }
}
layer {
  name: "relu6_1"
  type: "ReLU"
  bottom: "deepid_1"
  top: "deepid_1"
}
layer {
  name: "drop6_1"
  type: "Dropout"
  bottom: "deepid_1"
  top: "deepid_1"
  dropout_param {
    dropout_ratio: 0.5
  }
}
layer {
  name: "fc8_1"
  type: "InnerProduct"
  bottom: "deepid_1"
  top: "fc8_1"
  param {
    name: "fc8_w"
    lr_mult: 1
    decay_mult: 1
  }
  param {
    name: "fc8_b"
    lr_mult: 2
    decay_mult: 0
  }
  inner_product_param {
    num_output: 10575
    weight_filler {
      type: "gaussian"
      std: 0.01
    }
    bias_filler {
      type: "constant"
      value: 0
    }
  }
}
layer {
  name: "accuracy_1"
  type: "Accuracy"
  bottom: "fc8_1"
  bottom: "label_1"
  top: "accuracy_1"
  include {
    phase: TEST
  }
}
layer {
  name: "loss_1"
  type: "SoftmaxWithLoss"
  bottom: "fc8_1"
  bottom: "label_1"
  top: "loss_1"
}
I0707 16:52:24.694530  2443 layer_factory.hpp:74] Creating layer data_1
I0707 16:52:24.694542  2443 net.cpp:90] Creating Layer data_1
I0707 16:52:24.694550  2443 net.cpp:368] data_1 -> data_1
I0707 16:52:24.694558  2443 net.cpp:368] data_1 -> label_1
I0707 16:52:24.694566  2443 net.cpp:120] Setting up data_1
I0707 16:52:24.854306  2443 db.cpp:34] Opened lmdb /media/crw/MyBook/TrainData/LMDB/FaceRecognition/webface10575_48/val
I0707 16:52:25.014575  2443 data_layer.cpp:67] output data size: 32,3,48,48
I0707 16:52:25.014608  2443 data_transformer.cpp:22] Loading mean file from: /media/crw/MyBook/TrainData/LMDB/FaceRecognition/webface10575_48/mean.binaryproto
I0707 16:52:25.025403  2443 net.cpp:127] Top shape: 32 3 48 48 (221184)
I0707 16:52:25.025415  2443 net.cpp:127] Top shape: 32 (32)
I0707 16:52:25.025450  2443 layer_factory.hpp:74] Creating layer label_1_data_1_1_split
I0707 16:52:25.025470  2443 net.cpp:90] Creating Layer label_1_data_1_1_split
I0707 16:52:25.025481  2443 net.cpp:410] label_1_data_1_1_split <- label_1
I0707 16:52:25.025499  2443 net.cpp:368] label_1_data_1_1_split -> label_1_data_1_1_split_0
I0707 16:52:25.025517  2443 net.cpp:368] label_1_data_1_1_split -> label_1_data_1_1_split_1
I0707 16:52:25.025532  2443 net.cpp:120] Setting up label_1_data_1_1_split
I0707 16:52:25.025547  2443 net.cpp:127] Top shape: 32 (32)
I0707 16:52:25.025557  2443 net.cpp:127] Top shape: 32 (32)
I0707 16:52:25.025568  2443 layer_factory.hpp:74] Creating layer conv1_1
I0707 16:52:25.025583  2443 net.cpp:90] Creating Layer conv1_1
I0707 16:52:25.025593  2443 net.cpp:410] conv1_1 <- data_1
I0707 16:52:25.025607  2443 net.cpp:368] conv1_1 -> conv1_1
I0707 16:52:25.025624  2443 net.cpp:120] Setting up conv1_1
I0707 16:52:25.025676  2443 net.cpp:127] Top shape: 32 20 45 45 (1296000)
I0707 16:52:25.025691  2443 layer_factory.hpp:74] Creating layer relu1_1
I0707 16:52:25.025702  2443 net.cpp:90] Creating Layer relu1_1
I0707 16:52:25.025712  2443 net.cpp:410] relu1_1 <- conv1_1
I0707 16:52:25.025725  2443 net.cpp:357] relu1_1 -> conv1_1 (in-place)
I0707 16:52:25.025737  2443 net.cpp:120] Setting up relu1_1
I0707 16:52:25.025748  2443 net.cpp:127] Top shape: 32 20 45 45 (1296000)
I0707 16:52:25.025758  2443 layer_factory.hpp:74] Creating layer norm1_1
I0707 16:52:25.025773  2443 net.cpp:90] Creating Layer norm1_1
I0707 16:52:25.025784  2443 net.cpp:410] norm1_1 <- conv1_1
I0707 16:52:25.025795  2443 net.cpp:368] norm1_1 -> norm1_1
I0707 16:52:25.025807  2443 net.cpp:120] Setting up norm1_1
I0707 16:52:25.025821  2443 net.cpp:127] Top shape: 32 20 45 45 (1296000)
I0707 16:52:25.025833  2443 layer_factory.hpp:74] Creating layer pool1_1
I0707 16:52:25.025846  2443 net.cpp:90] Creating Layer pool1_1
I0707 16:52:25.025854  2443 net.cpp:410] pool1_1 <- norm1_1
I0707 16:52:25.025866  2443 net.cpp:368] pool1_1 -> pool1_1
I0707 16:52:25.025878  2443 net.cpp:120] Setting up pool1_1
I0707 16:52:25.025892  2443 net.cpp:127] Top shape: 32 20 23 23 (338560)
I0707 16:52:25.025902  2443 layer_factory.hpp:74] Creating layer conv2_1
I0707 16:52:25.025933  2443 net.cpp:90] Creating Layer conv2_1
I0707 16:52:25.025943  2443 net.cpp:410] conv2_1 <- pool1_1
I0707 16:52:25.025956  2443 net.cpp:368] conv2_1 -> conv2_1
I0707 16:52:25.025970  2443 net.cpp:120] Setting up conv2_1
I0707 16:52:25.026067  2443 net.cpp:127] Top shape: 32 40 21 21 (564480)
I0707 16:52:25.026080  2443 layer_factory.hpp:74] Creating layer relu2_1
I0707 16:52:25.026093  2443 net.cpp:90] Creating Layer relu2_1
I0707 16:52:25.026103  2443 net.cpp:410] relu2_1 <- conv2_1
I0707 16:52:25.026113  2443 net.cpp:357] relu2_1 -> conv2_1 (in-place)
I0707 16:52:25.026124  2443 net.cpp:120] Setting up relu2_1
I0707 16:52:25.026134  2443 net.cpp:127] Top shape: 32 40 21 21 (564480)
I0707 16:52:25.026144  2443 layer_factory.hpp:74] Creating layer norm2_1
I0707 16:52:25.026157  2443 net.cpp:90] Creating Layer norm2_1
I0707 16:52:25.026166  2443 net.cpp:410] norm2_1 <- conv2_1
I0707 16:52:25.026177  2443 net.cpp:368] norm2_1 -> norm2_1
I0707 16:52:25.026190  2443 net.cpp:120] Setting up norm2_1
I0707 16:52:25.026202  2443 net.cpp:127] Top shape: 32 40 21 21 (564480)
I0707 16:52:25.026211  2443 layer_factory.hpp:74] Creating layer pool2_1
I0707 16:52:25.026222  2443 net.cpp:90] Creating Layer pool2_1
I0707 16:52:25.026232  2443 net.cpp:410] pool2_1 <- norm2_1
I0707 16:52:25.026242  2443 net.cpp:368] pool2_1 -> pool2_1
I0707 16:52:25.026253  2443 net.cpp:120] Setting up pool2_1
I0707 16:52:25.026265  2443 net.cpp:127] Top shape: 32 40 11 11 (154880)
I0707 16:52:25.026275  2443 layer_factory.hpp:74] Creating layer conv3_1
I0707 16:52:25.026288  2443 net.cpp:90] Creating Layer conv3_1
I0707 16:52:25.026298  2443 net.cpp:410] conv3_1 <- pool2_1
I0707 16:52:25.026309  2443 net.cpp:368] conv3_1 -> conv3_1
I0707 16:52:25.026321  2443 net.cpp:120] Setting up conv3_1
I0707 16:52:25.026799  2443 net.cpp:127] Top shape: 32 60 9 9 (155520)
I0707 16:52:25.026813  2443 layer_factory.hpp:74] Creating layer pool3_1
I0707 16:52:25.026820  2443 net.cpp:90] Creating Layer pool3_1
I0707 16:52:25.026826  2443 net.cpp:410] pool3_1 <- conv3_1
I0707 16:52:25.026834  2443 net.cpp:368] pool3_1 -> pool3_1
I0707 16:52:25.026842  2443 net.cpp:120] Setting up pool3_1
I0707 16:52:25.026850  2443 net.cpp:127] Top shape: 32 60 5 5 (48000)
I0707 16:52:25.026856  2443 layer_factory.hpp:74] Creating layer pool3_1_pool3_1_0_split
I0707 16:52:25.026862  2443 net.cpp:90] Creating Layer pool3_1_pool3_1_0_split
I0707 16:52:25.026868  2443 net.cpp:410] pool3_1_pool3_1_0_split <- pool3_1
I0707 16:52:25.026875  2443 net.cpp:368] pool3_1_pool3_1_0_split -> pool3_1_pool3_1_0_split_0
I0707 16:52:25.026881  2443 net.cpp:368] pool3_1_pool3_1_0_split -> pool3_1_pool3_1_0_split_1
I0707 16:52:25.026888  2443 net.cpp:120] Setting up pool3_1_pool3_1_0_split
I0707 16:52:25.026895  2443 net.cpp:127] Top shape: 32 60 5 5 (48000)
I0707 16:52:25.026901  2443 net.cpp:127] Top shape: 32 60 5 5 (48000)
I0707 16:52:25.026906  2443 layer_factory.hpp:74] Creating layer conv4_1
I0707 16:52:25.026916  2443 net.cpp:90] Creating Layer conv4_1
I0707 16:52:25.026921  2443 net.cpp:410] conv4_1 <- pool3_1_pool3_1_0_split_0
I0707 16:52:25.026929  2443 net.cpp:368] conv4_1 -> conv4_1
I0707 16:52:25.026937  2443 net.cpp:120] Setting up conv4_1
I0707 16:52:25.027357  2443 net.cpp:127] Top shape: 32 80 2 2 (10240)
I0707 16:52:25.027369  2443 layer_factory.hpp:74] Creating layer flatten_pool3_1
I0707 16:52:25.027376  2443 net.cpp:90] Creating Layer flatten_pool3_1
I0707 16:52:25.027382  2443 net.cpp:410] flatten_pool3_1 <- pool3_1_pool3_1_0_split_1
I0707 16:52:25.027390  2443 net.cpp:368] flatten_pool3_1 -> flatten_pool3_1
I0707 16:52:25.027396  2443 net.cpp:120] Setting up flatten_pool3_1
I0707 16:52:25.027403  2443 net.cpp:127] Top shape: 32 1500 (48000)
I0707 16:52:25.027410  2443 layer_factory.hpp:74] Creating layer flatten_conv4_1
I0707 16:52:25.027416  2443 net.cpp:90] Creating Layer flatten_conv4_1
I0707 16:52:25.027422  2443 net.cpp:410] flatten_conv4_1 <- conv4_1
I0707 16:52:25.027428  2443 net.cpp:368] flatten_conv4_1 -> flatten_conv4_1
I0707 16:52:25.027446  2443 net.cpp:120] Setting up flatten_conv4_1
I0707 16:52:25.027453  2443 net.cpp:127] Top shape: 32 320 (10240)
I0707 16:52:25.027459  2443 layer_factory.hpp:74] Creating layer contact_conv
I0707 16:52:25.027472  2443 net.cpp:90] Creating Layer contact_conv
I0707 16:52:25.027480  2443 net.cpp:410] contact_conv <- flatten_conv4_1
I0707 16:52:25.027489  2443 net.cpp:410] contact_conv <- flatten_pool3_1
I0707 16:52:25.027500  2443 net.cpp:368] contact_conv -> contact_conv
I0707 16:52:25.027513  2443 net.cpp:120] Setting up contact_conv
I0707 16:52:25.027524  2443 net.cpp:127] Top shape: 32 1820 (58240)
I0707 16:52:25.027534  2443 layer_factory.hpp:74] Creating layer deepid_1
I0707 16:52:25.027549  2443 net.cpp:90] Creating Layer deepid_1
I0707 16:52:25.027554  2443 net.cpp:410] deepid_1 <- contact_conv
I0707 16:52:25.027564  2443 net.cpp:368] deepid_1 -> deepid_1
I0707 16:52:25.027571  2443 net.cpp:120] Setting up deepid_1
I0707 16:52:25.033416  2443 net.cpp:127] Top shape: 32 160 (5120)
I0707 16:52:25.033432  2443 layer_factory.hpp:74] Creating layer relu6_1
I0707 16:52:25.033440  2443 net.cpp:90] Creating Layer relu6_1
I0707 16:52:25.033447  2443 net.cpp:410] relu6_1 <- deepid_1
I0707 16:52:25.033454  2443 net.cpp:357] relu6_1 -> deepid_1 (in-place)
I0707 16:52:25.033463  2443 net.cpp:120] Setting up relu6_1
I0707 16:52:25.033468  2443 net.cpp:127] Top shape: 32 160 (5120)
I0707 16:52:25.033474  2443 layer_factory.hpp:74] Creating layer drop6_1
I0707 16:52:25.033481  2443 net.cpp:90] Creating Layer drop6_1
I0707 16:52:25.033488  2443 net.cpp:410] drop6_1 <- deepid_1
I0707 16:52:25.033493  2443 net.cpp:357] drop6_1 -> deepid_1 (in-place)
I0707 16:52:25.033500  2443 net.cpp:120] Setting up drop6_1
I0707 16:52:25.033507  2443 net.cpp:127] Top shape: 32 160 (5120)
I0707 16:52:25.033514  2443 layer_factory.hpp:74] Creating layer fc8_1
I0707 16:52:25.033522  2443 net.cpp:90] Creating Layer fc8_1
I0707 16:52:25.033527  2443 net.cpp:410] fc8_1 <- deepid_1
I0707 16:52:25.033535  2443 net.cpp:368] fc8_1 -> fc8_1
I0707 16:52:25.033542  2443 net.cpp:120] Setting up fc8_1
I0707 16:52:25.070526  2443 net.cpp:127] Top shape: 32 10575 (338400)
I0707 16:52:25.070559  2443 layer_factory.hpp:74] Creating layer fc8_1_fc8_1_0_split
I0707 16:52:25.070570  2443 net.cpp:90] Creating Layer fc8_1_fc8_1_0_split
I0707 16:52:25.070580  2443 net.cpp:410] fc8_1_fc8_1_0_split <- fc8_1
I0707 16:52:25.070588  2443 net.cpp:368] fc8_1_fc8_1_0_split -> fc8_1_fc8_1_0_split_0
I0707 16:52:25.070600  2443 net.cpp:368] fc8_1_fc8_1_0_split -> fc8_1_fc8_1_0_split_1
I0707 16:52:25.070607  2443 net.cpp:120] Setting up fc8_1_fc8_1_0_split
I0707 16:52:25.070616  2443 net.cpp:127] Top shape: 32 10575 (338400)
I0707 16:52:25.070622  2443 net.cpp:127] Top shape: 32 10575 (338400)
I0707 16:52:25.070628  2443 layer_factory.hpp:74] Creating layer accuracy_1
I0707 16:52:25.070637  2443 net.cpp:90] Creating Layer accuracy_1
I0707 16:52:25.070643  2443 net.cpp:410] accuracy_1 <- fc8_1_fc8_1_0_split_0
I0707 16:52:25.070649  2443 net.cpp:410] accuracy_1 <- label_1_data_1_1_split_0
I0707 16:52:25.070657  2443 net.cpp:368] accuracy_1 -> accuracy_1
I0707 16:52:25.070664  2443 net.cpp:120] Setting up accuracy_1
…
